best_NN_model.pth (torch, 22656 bytes, 4 tensors)

fc1.weight f4 [128, 37]
000000 be e9 b4 be ec e2 70 be e2 78 18 bf 55 9a d8 be
       -0.3533458 -0.23524064 -0.5955945 -0.42305246
000010 a0 35 9d be 8d fc 36 bf e3 f3 6d 3e 45 36 37 ba
       -0.30704975 -0.7147911 0.23237567 -0.0006988983
000020 41 b9 c4 be f8 51 c8 be cc c4 9a be 65 91 c1 3c
       -0.38422588 -0.39125037 -0.3022827 0.0236289
000030 0a 2a 8d 3c 81 b0 b8 be ee c1 16 be 42 af d4 bd
       0.01723196 -0.36072162 -0.14722416 -0.1038499
000040 d2 82 92 be 92 12 eb 3c 42 4d 49 be df 6d 20 bc
       -0.28615433 0.028695378 -0.19658378 -0.00979182
000050 f8 7c ad bd 5d c8 a4 be fa a9 9c be 2c 25 04 bf
       -0.084711015 -0.32184115 -0.30598432 -0.5161922
000060 bd 5a cf bd 1c d4 83 bd 72 3e c7 be 4e e0 e6 3d
       -0.10124729 -0.06436941 -0.3891483 0.112732515
000070 ad 53 0b be bd c1 7f be 35 04 aa be dc 39 90 bd
       -0.13606139 -0.24976249 -0.33206335 -0.07042286
000080 ce 2c 58 3e e1 c5 9e be d2 88 ef be 8b e6 8e 3e
       0.21110842 -0.31010345 -0.46784073 0.27910265
000090 96 16 1e 3e 97 dd 19 3e a6 60 24 bf 2e 92 42 40
       0.15438303 0.15025936 -0.64209974 3.040172
0000a0 df e4 f6 3f 93 a1 43 3e d5 52 a6 40 36 14 54 c0
       1.9288596 0.19104604 5.1976113 -3.3137336
0000b0 f2 1f 9e bb 4b 65 7f bf 90 81 c6 3f ec 1a b2 3f
       -0.0048255855 -0.99763936 1.5508289 1.3914466
0000c0 49 33 3b 3f 24 0a 92 3f eb 3a 02 3c 86 40 15 c0
       0.7312513 1.1409345 0.007948617 -2.3320632
0000d0 31 e5 a6 3e 47 a4 0c 3f 53 68 80 bf 62 2f 3c 3f
       0.32596734 0.5493817 -1.0031837 0.735098
0000e0 69 70 45 bf 45 ec 7f 3f 54 d2 b5 3f 45 97 9c bf
       -0.7712465 0.99969894 1.4204812 -1.2233664
0000f0 4b ee 53 3b 7d 10 5c bf d3 d4 21 bf f0 b6 2e 40
       0.0032338079 -0.8596266 -0.6321537 2.7299156
000100 36 0c 11 c0 32 89 32 3f 1a 6b 97 3f ae 45 04 40
       -2.2663703 0.69740593 1.182956 2.066753
000110 76 62 ef be 15 46 92 c0 07 8a ea 3f 09 7e d4 3f
       -0.46754807 -4.571055 1.8323373 1.6600963
000120 d6 55 69 c0 07 24 3d c0 e4 ae cd be f4 b3 39 bf
       -3.645864 -2.955324 -0.40172493 -0.7254021
000130 74 18 c8 be a9 4f c4 be fe a0 2a bf 92 8a 65 3f
       -0.39081156 -0.38342026 -0.66651905 0.89664567
000140 8d 83 05 bf df 67 52 bb 95 b5 9f be 7a 36 dd 3d
       -0.52153856 -0.003210537 -0.31193224 0.10801406
000150 46 71 c7 3d a0 db b7 be 28 4d 45 3f a6 bf 1a 3e
       0.09738402 -0.35909748 0.77070856 0.1511217
000160 a9 ba 3f be bd 38 06 3d 85 1b 81 be 73 0d e6 3e
       -0.18723549 0.032768954 -0.25216308 0.44932136
000170 20 24 c1 bd cf b4 ae 3e 44 63 f0 3e a5 49 7b be
       -0.094307184 0.3412232 0.46950734 -0.24539812
000180 5e 57 5e 3d 23 6f 00 be f8 22 e3 be 2e 98 43 3d
       0.05428254 -0.12542395 -0.44362617 0.04775255
000190 96 df eb be 8e 77 80 be 8c 83 e7 3f fb fc 1d bf
       -0.4606902 -0.25091213 1.808702 -0.6171414
0001a0 01 9a 14 bf ba c5 b4 be 9d a9 30 bf 02 cb 0a bc
       -0.5804749 -0.35307103 -0.6900881 -0.008471252
0001b0 19 61 e4 be e4 49 87 3e e4 bf 1d be 83 73 8b be
       -0.4460533 0.26423562 -0.15405232 -0.27236566
0001c0 d1 45 02 bf 57 c1 3e bf 72 d9 b8 be 51 ef e3 be
       -0.5088778 -0.74513763 -0.36103398 -0.4451852
0001d0 5d 4e 32 be b2 ab de 3d ec 58 47 bb 18 38 41 3d
       -0.17412706 0.10872592 -0.0030417992 0.047172636
0001e0 68 01 d6 be 67 ed 92 be 36 ad 8d be 0a 54 e5 3d
       -0.41797948 -0.2869675 -0.27671212 0.1119767
0001f0 fa 7e ee 3b 3b 7c af 3e da 0c 9f 3d 5e 10 c6 bd
       0.0072783204 0.34274468 0.07766123 -0.096710905
000200 0d eb ef 3c e1 b5 e2 be 2a 8f 6f 3e a4 7e 60 bd
       0.029286886 -0.44279388 0.23394457 -0.054808274
000210 d6 5f aa be ba 29 ba be b2 a0 3b bf aa 8d bd be
       -0.33276242 -0.3635996 -0.73292077 -0.37022144
000220 7c 65 c1 3e be 37 5c be 38 46 ab 3d 6a cc ab 3d
       0.3777274 -0.21505639 0.083630025 0.08388598
000230 29 3e b7 bd 3d c4 51 bd 3f 5d f8 be 6b 9f 93 bd
       -0.08947403 -0.051212538 -0.4850864 -0.07208141
000240 02 58 d1 be fd 5b d5 3c 9c c7 dc 3d d2 42 49 3e
       -0.40887457 0.02604484 0.1078026 0.19654396
000250 79 13 84 be ad 50 5f be 6a cf 0d be ee 54 b5 be
       -0.25796106 -0.21808119 -0.13848653 -0.3541636
000260 22 55 00 bf 44 79 09 be 11 6e 12 bd ca db 24 ba
       -0.501299 -0.13425165 -0.0357495 -0.00062888546
000270 eb 08 6e be 2c af ca be 8e f8 4e be f6 17 50 be
       -0.2324559 -0.3958677 -0.20212004 -0.2032164
000280 1d 22 85 be b1 f5 a4 bd 31 39 82 be e6 b6 ba bd
       -0.2600259 -0.080546744 -0.2543426 -0.09116916
000290 6b 0f b9 be c8 65 86 bc 72 73 0c be de 42 e0 bd
       -0.36144575 -0.016405955 -0.13715914 -0.10950254
0002a0 8c d7 01 3e 9f 0c ca be 89 3a 0e be 4e 99 a0 be
       0.12679881 -0.39462754 -0.13889517 -0.31366962
0002b0 37 18 81 bc c2 c6 0d bc 70 e6 94 be b0 12 8a 3c
       -0.015758617 -0.008653345 -0.2908206 0.016854614
0002c0 43 d7 93 bd 8c 52 a7 bd 1f 57 1b bd d3 7a 5e 3d
       -0.07218792 -0.081700414 -0.037924882 0.054316353
0002d0 61 b2 f1 3d c3 1a 67 bd 74 db 64 be 44 b6 b0 3d
       0.11801601 -0.056422006 -0.2234934 0.086285144
0002e0 6a 31 ee bc e5 bc 2f bd d4 d3 0c bf 59 95 71 3d
       -0.029076297 -0.042904753 -0.55010724 0.05898032
0002f0 ae e7 0e 3d 6a c4 06 bf 5a b8 49 bb 51 80 8b bd
       0.034888916 -0.52643454 -0.0030780048 -0.06811584
000300 c2 37 96 bb f8 21 e0 be 93 da 00 be a9 c8 01 be
       -0.0045842836 -0.43775916 -0.1258338 -0.12674202
000310 11 60 db 3d 5d 6f 39 3e 7d 03 c9 be 6a d6 fc be
       0.107116826 0.18108888 -0.39260474 -0.49382335
000320 41 dc 9c bd ac de ae bd c3 aa a2 be 36 55 06 bd
       -0.076591976 -0.08538565 -0.31770906 -0.032796107
000330 e0 d4 8c be 3a 8a c9 3d 51 f8 d2 be 55 89 f1 be
       -0.2750616 0.09840818 -0.41205075 -0.4717509
000340 7d 49 17 bf c2 4a 04 bf 2d 16 b6 bd cb 5a 6c 3e
       -0.5909651 -0.5167657 -0.088909484 0.2308151
000350 e3 f9 9d be bf f3 42 be fb 3e 8f 3e 7d 94 83 bd
       -0.3085471 -0.19038294 0.27977738 -0.06424806
000360 01 49 4e be 79 9a 63 bf 33 da 16 3e f4 d1 68 3d
       -0.20145036 -0.8890758 0.14731674 0.056840852
000370 d7 c7 35 bf fe b2 14 bf 31 94 20 be bf 0a c7 be
       -0.71008056 -0.5808562 -0.1568153 -0.38875386
000380 9d 26 a8 bb 2c f1 87 3d 3c 0c 9b be b2 90 d3 3e
       -0.005131556 0.06637797 -0.30282772 0.4132133
000390 ae fb e2 be 48 20 80 ba 38 8c 82 be 9b 1b 4b be
       -0.4433264 -0.0009775246 -0.25497603 -0.1983475
0003a0 85 e1 20 be b4 58 00 be 94 6e e0 3d d7 f4 14 be
       -0.15711029 -0.12533838 0.10958591 -0.14546524
0003b0 bb a5 f2 bc c3 92 99 be 72 a8 37 3b 08 9c 26 be
       -0.029620042 -0.29994783 0.0028023985 -0.16270459
0003c0 0e cf c2 bd bf 1b 50 bd 72 fb 4c 3e d2 31 75 bd
       -0.09512149 -0.05080771 0.20017794 -0.059861965
0003d0 9c 51 b2 be a7 ed 8d be 95 d6 f7 be c5 21 2f be
       -0.34827888 -0.27720377 -0.484059 -0.17102726
0003e0 fe f4 e9 3d 53 42 3a be f2 4d 1b 3d f1 b8 a4 3e
       0.11423682 -0.18189363 0.03791613 0.3217235
0003f0 bc f1 76 bd 93 e2 be be cb b1 d4 3d c6 fc ba bd
       -0.06028913 -0.37282237 0.10385474 -0.09130244

fc1.bias f4 [128]
000000 44 71 c1 be 09 3b c2 bd 4f 83 64 be cf d3 0c bf
       -0.37781727 -0.09483916 -0.22315715 -0.55010694
000010 f5 05 d9 be 65 68 c7 be 7b 49 65 be 98 f3 e9 be
       -0.42387357 -0.38946834 -0.22391312 -0.4569366
000020 50 ee 0f bf 60 d7 4b bd 1c dc 0d be c1 95 d6 be
       -0.5622301 -0.049765944 -0.13853496 -0.41911128
000030 56 3c 93 be 84 1a 29 be 38 9a 9d be fb 29 0e bf
       -0.2875697 -0.16514021 -0.30781722 -0.5553281
000040 2a f3 7d be 79 19 5c be 6c 81 f3 bd 26 56 60 be
       -0.24799791 -0.21494092 -0.1188992 -0.21907863
000050 04 8f f4 3e 07 af 9d be c6 5b 7f be b4 ac 7f be
       0.47765362 -0.30797598 -0.24937353 -0.24968225
000060 10 85 94 be aa 74 f8 be 27 ec b7 be 66 39 23 bf
       -0.2900777 -0.48526508 -0.35922357 -0.6375946
000070 d8 ec 28 3f a2 37 c5 bd ca 79 86 be d2 31 13 be
       0.65986395 -0.09629752 -0.26264793 -0.14374474
000080 32 15 f1 be bb 58 48 be 89 b9 2c bf fa 2b 5d 3f
       -0.47086483 -0.19565098 -0.67470604 0.8639523
000090 c0 12 c2 be 50 8b f0 be 15 6f 18 bf ec 4f d3 be
       -0.3790493 -0.46981287 -0.595445 -0.41271913
0000a0 63 18 dd 3d db ed c3 be 3d df e4 be ef b1 05 bf
       0.10795667 -0.38267407 -0.44701567 -0.5222463
0000b0 25 ba 20 3f 4c cb 2e be 3b c0 c0 be 76 a5 0b bf
       0.62784034 -0.17069739 -0.3764666 -0.5454935
0000c0 f2 06 89 be 8a 19 89 bd 37 52 e8 3d b9 5f 74 be
       -0.2676311 -0.06694324 0.11343806 -0.2386464
0000d0 bf b8 85 be 21 7f c6 3d 6d de e6 be 07 7d 98 3e
       -0.26117513 0.09692217 -0.45091572 0.29782888
0000e0 e7 3e 9e be 94 7a e1 be 4a fd 05 bc e4 66 f2 3c
       -0.30907366 -0.44038832 -0.008178065 0.029590078
0000f0 21 9f 81 be 51 06 dc 3e 83 e3 d4 be 89 fd 50 bf
       -0.25316718 0.4297357 -0.41579828 -0.81636864
000100 ac 2a 71 be cf c6 ea bc e3 62 32 be 51 7e aa be
       -0.23551434 -0.028659252 -0.17420535 -0.33299497
000110 d3 cf f3 be f0 7a a5 3d d4 3d b2 be d6 21 bf 3d
       -0.47619495 0.08080089 -0.34812796 0.093326256
000120 5f 9a 9b 3e 7c ac ce be e0 b5 55 bf 36 70 67 be
       0.30391213 -0.4036597 -0.83480644 -0.22601399
000130 a9 30 a2 be fb b4 75 3e 4e 73 bc be e4 e1 15 bf
       -0.3167775 0.2399482 -0.3680672 -0.58547807
000140 93 eb f8 be dd 93 4c be 7e 88 fb be 43 ea fd be
       -0.4861723 -0.1997828 -0.49127573 -0.4959279
000150 80 ab 09 bf 3e 62 67 3c 55 19 1f be f5 19 86 be
       -0.53777313 0.014122544 -0.15537007 -0.2619168
000160 46 d1 f2 bd 39 42 ad be 9d 54 b1 be 45 fc 97 be
       -0.11856322 -0.33839586 -0.34634867 -0.29684654
000170 20 35 f0 be ce 15 2b 3e 72 0f da be d3 17 1a be
       -0.4691553 0.16707537 -0.4258991 -0.1504815
000180 65 20 88 be 74 36 05 bf ff 67 b0 be 6e f9 ab be
       -0.26587215 -0.52036214 -0.34454343 -0.33588737
000190 16 51 7b 3e ae f9 1b bf 1a 7f 10 bf a9 61 15 be
       0.2454265 -0.60927856 -0.5644394 -0.14588036
0001a0 61 09 36 be da 2e 71 be 08 e3 c3 be d6 b4 8c be
       -0.17777015 -0.23553029 -0.3825915 -0.27481717
0001b0 4d 4a 4a be 78 55 fe be 23 a3 98 be 0a 59 29 be
       -0.19754906 -0.49674582 -0.29811963 -0.16537872
0001c0 3e 31 24 3f bf c2 db bd f1 f4 11 3d e7 d6 6a bf
       0.6413764 -0.10730504 0.035633985 -0.91734165
0001d0 77 0b 73 be 1f 55 04 bf 09 84 af be 9c 9a 10 bc
       -0.23734842 -0.51692384 -0.34280422 -0.008825924
0001e0 5d 60 be be 4f 3d b6 3e bc 59 12 bf 6c f6 0e bf
       -0.37182894 0.3559365 -0.57168174 -0.5584476
0001f0 04 d5 c3 be bb 3e ff be b6 bd 91 bd 7c 4a 53 be
       -0.38248456 -0.49852547 -0.071162626 -0.20633882

fc2.weight f4 [2, 128]
000000 bb ac 74 3a 4f 88 48 3d 0f f6 dc 3c 88 6f 96 3d
       0.00093336 0.04895812 0.026972799 0.07345492
000010 b2 eb be 3b 26 bf b3 bc e8 9e 1c 3d ef 00 2d bb
       0.005826437 -0.021941733 0.038237482 -0.0026398262
000020 08 dd b5 bd cf dc 59 3b 14 a8 aa bd cd e0 71 bc
       -0.08880049 0.0033243184 -0.083328396 -0.014763069
000030 67 94 29 bb 5d 97 80 3d af 6f 1a bd e4 1d 27 bb
       -0.0025875808 0.0627887 -0.037704166 -0.0025499994
000040 8a c6 ad bc 15 04 70 bd 57 7e e0 3d 8e 18 85 bd
       -0.021212835 -0.058597643 0.109615974 -0.06498824
000050 c6 d7 66 bd 3e 36 c4 bb e6 2d 23 3d 94 98 84 bc
       -0.05635812 -0.0059879115 0.039838694 -0.016186036
000060 a6 3e 99 3c 66 3f 4f be 24 6d 00 3b dd 8d 38 bb
       0.01870663 -0.20239028 0.0019596303 -0.002816073
000070 e8 ac 7c bd 6e 8c 40 bd dc bf 0a bd 5e ef 9b bc
       -0.061688334 -0.047008924 -0.033874378 -0.019035038
000080 51 17 8c 3d fc 00 8a 3d d6 4b 62 3d da f1 a5 3e
       0.06840385 0.06738469 0.055248104 0.3241108
000090 cf 03 68 bd 25 d0 84 bd d9 5b c3 ba 29 ef 37 3d
       -0.056644257 -0.06485013 -0.0014904692 0.044905815
0000a0 ad d4 3b bc b4 11 df 3c 17 6e 3e bc 4e cd 3a 3c
       -0.01146428 0.027230121 -0.011622927 0.0114014875
0000b0 a6 48 49 bd 46 b7 1c bd a3 c2 9f bb 02 44 60 3d
       -0.04914155 -0.03826072 -0.0048754974 0.054752357
0000c0 5c be f8 3c e1 93 1b bd 27 49 29 bc 9c dd 15 bd
       0.030364208 -0.037982825 -0.010332382 -0.036588296
0000d0 3a 7b 97 bc b3 9f 78 3d f7 de 9e 3b fd 7f 40 bc
       -0.018491376 0.060699176 0.004848357 -0.011749265
0000e0 b8 95 92 bc 22 ee 22 bd 4b dd cc 3c 9b 37 aa 3c
       -0.017893657 -0.039777882 0.025007864 0.020778468
0000f0 16 fc d0 3c a7 af 1a 3d 43 a7 70 bc 4b ef 8f 3d
       0.025510829 0.03776517 -0.014688316 0.070280634
000100 99 ec d3 bb b7 24 e2 3c 78 1a 61 bc ac 70 cc 3b
       -0.0064674136 0.027605398 -0.013739221 0.0062390175
000110 62 cc 4f bd ea b0 1c 3d 94 16 9b bd 86 3d 19 bd
       -0.050732024 0.038254656 -0.07572666 -0.03741219
000120 98 23 9a bd 70 3e bb 3c dc 8f 5e bd 4d 1d a1 b9
       -0.0752632 0.022856921 -0.054336414 -0.00030730144
000130 28 9e 03 3d e4 fc a0 3c eb ff 25 3d a4 d3 53 3d
       0.03213325 0.019651838 0.040527266 0.051715508
000140 24 2e 73 bc b7 9e af 3c 7e 27 59 bd ee d8 34 bc
       -0.014842544 0.021437986 -0.05301618 -0.011038048
000150 47 d2 e6 3c e2 7e 3b be 43 f5 45 3d bb d7 13 3d
       0.02817644 -0.1831012 0.048329603 0.03609441
000160 5f e3 1d 3d b9 37 13 3d 1d a0 fa bb 39 8c 94 3d
       0.038546916 0.035941813 -0.0076484815 0.07253308
000170 64 72 15 3b 7a 12 5a bc d0 4a 8f 3d 38 29 9b 3d
       0.0022803778 -0.013310069 0.06996691 0.07576221
000180 a3 12 92 bc db 0a 81 bc 96 2e 32 bb e7 02 b3 bc
       -0.017831152 -0.015752247 -0.0027188412 -0.02185197
000190 91 74 99 3d 4e 76 0d bd b7 6e d4 3b f3 7a 16 bc
       0.074929364 -0.034536652 0.006482925 -0.009184587
0001a0 ae 2f 7f bd ec 0f bc ba 27 5a 05 3d 8d 8d a3 bc
       -0.06230133 -0.0014348007 0.03255668 -0.019964958
0001b0 79 c4 20 bc 9c 09 81 bd 50 25 12 bd dd 99 8d bd
       -0.009812468 -0.06300661 -0.035680115 -0.06914113
0001c0 e3 8a 0c be a2 2b c6 3c 68 dd 1b bb f1 ba c1 3c
       -0.13724856 0.024190728 -0.0023783091 0.02364871
0001d0 7d 0f 85 bd db bf f1 bc 61 a7 33 3d ad 9c 6a bd
       -0.06497095 -0.02951043 0.043860797 -0.057278324
0001e0 3e 87 99 3d ed 9b 03 bf b5 fc 0c 3c 70 a7 28 bd
       0.074964985 -0.514098 0.008605172 -0.041175306
0001f0 26 30 04 3d c6 ac 93 bc 9b b8 59 bc 09 fe 00 3d
       0.03227248 -0.01802672 -0.013288642 0.031492267
000200 4e ef 42 3c 35 93 d0 bc 20 5f 14 3d a6 78 3f 3d
       0.011897875 -0.025460819 0.03622353 0.04674592
000210 22 42 1a 3d ac 81 8c bc 1f 58 4e 3d 7a c6 16 bd
       0.037660725 -0.017151676 0.050377008 -0.036810376
000220 46 cc 01 3d 01 db 2f bc 49 ac ab bd c0 c4 49 3c
       0.03168895 -0.010733367 -0.0838247 0.012314975
000230 de a7 1b 3a 85 ff 81 3d c3 10 1c bd f1 51 1b ba
       0.0005937795 0.063475646 -0.038101923 -0.0005924991
000240 ea 1f 73 bc b7 35 72 bd 65 ad 78 3c 0a 4f 83 bd
       -0.014839152 -0.059133258 0.015178059 -0.0641156
000250 93 37 25 3d b9 08 85 3c 75 3a 5a 3d 74 4d 23 b9
       0.040336203 0.01623951 0.053278405 -0.00015573745
000260 31 0a 8f 3c 50 40 1a 3e c0 26 fe 3b 53 0c e3 3c
       0.017460914 0.15063596 0.007756084 0.027715838
000270 16 19 85 bd 3f 3f 39 bd 53 14 e2 3c df 4a 80 bc
       -0.064989254 -0.04522633 0.027597582 -0.015660701
000280 5c a7 92 3d 8c a5 ab 3d b4 9d 68 3d b3 2e 93 be
       0.071608275 0.08381185 0.056791022 -0.28746566
000290 f1 b4 f9 bc b6 25 70 bd a8 25 61 3c c4 97 5a 3d
       -0.030481787 -0.058629714 0.013741888 0.05336739
0002a0 38 45 9f bc 29 62 87 3c 19 0a 23 3d 72 ca c0 3c
       -0.019442186 0.016526299 0.03980455 0.023534033
0002b0 01 81 62 3d 52 c9 bb bc 1a 62 95 3b 47 5e 8f 3d
       0.05529881 -0.022923145 0.0045588138 0.07000404
0002c0 41 17 42 3d ee 1c 06 bd 27 4e 43 3c 47 77 b0 bd
       0.047385458 -0.032742433 0.011920488 -0.086165
0002d0 43 d7 39 bd 0b 07 84 3d 4a bd d8 3c 65 bb 97 bc
       -0.045371305 0.06446656 0.026457448 -0.018521974
0002e0 08 18 b9 39 44 8b 4e bd e0 9c f7 3c 40 a0 92 3c
       0.00035303854 -0.050425783 0.030226171 0.017898679
0002f0 41 66 1e 3d 20 5d fc 3c de cf 01 bc 28 0f 16 3d
       0.038671736 0.030806124 -0.007923095 0.036635548
000300 04 b3 0b bd 43 74 c7 3c 5f 17 9a 3b 6a b9 e0 3c
       -0.03410627 0.02434743 0.004702493 0.027432162
000310 c7 cd 84 bd 50 73 29 3d 43 6e 88 bd 8e 78 6a bd
       -0.064845614 0.041369736 -0.06661656 -0.057243876
000320 61 1e 01 3e 7a 39 77 bc f0 40 ae bb 58 b4 0a 3c
       0.12609245 -0.015089387 -0.0053177997 0.008465849
000330 cb 63 17 bc ea 47 b1 bc f2 f0 1d 3d b2 12 a8 3c
       -0.009240101 -0.021640737 0.03855986 0.020516727
000340 19 2d 1c 3c 41 59 85 3c a6 11 67 bc 34 1f c5 bb
       0.0095322365 0.016277911 -0.014103329 -0.0060156826
000350 d7 3a 2c 3d 40 f2 9a 3d 5d 1a 2a 3d 92 cb 46 bc
       0.0420483 0.07565737 0.04152905 -0.012133496
000360 31 dc 3b 3d df a4 0f 3d a1 83 52 bd de fa ae 3d
       0.045864288 0.035069343 -0.051395062 0.08543943
000370 c4 5c 25 3d 88 44 32 bb da 1b 9b 3d 91 23 99 3d
       0.04037167 -0.0027201492 0.07573672 0.07477487
000380 b2 25 39 3d 48 df 20 3c 29 b5 09 bd d3 97 f4 bc
       0.045201965 0.009818859 -0.033620033 -0.029857552
000390 12 51 8d 3d 8f 6b 0a bd be fa 01 bd 37 ce dc ba
       0.069002286 -0.033793982 -0.031733267 -0.0016846125
0003a0 be e3 02 bd 1f 82 08 3c 06 65 3b 3d bc 53 98 bc
       -0.031955473 0.008331805 0.04575064 -0.018594615
0003b0 8b 13 90 bc 38 6f 55 bd 00 12 41 bd bd 61 8a bd
       -0.017587444 -0.05210802 -0.047136307 -0.06756923
0003c0 d1 27 cc 3d 39 31 56 3c 37 b5 98 ba 53 60 d6 bd
       0.09968532 0.013073259 -0.0011650686 -0.10467591
0003d0 b0 12 85 bd 5e 62 0f 3c 17 75 8f 3c db 2b fd bc
       -0.06497705 0.00875148 0.017511887 -0.030904701
0003e0 4c ed b8 3c 15 78 2d 3f ca 28 7f 3c 2e ba 22 bd
       0.02257409 0.67761356 0.01557369 -0.039728336
0003f0 12 a7 04 3d d8 cb 3d bc 5c cc 07 bc 16 3f 00 3d
       0.032385893 -0.011584245 -0.008288469 0.031310163

fc2.bias f4 [2]
000000 6f a6 43 3f c9 8c 20 bf
       0.7642583 -0.6271482
