best_model.pth (torch, 30824 bytes, 4 tensors)

fc1.weight f4 [128, 53]
00000000: ec3d 31be d23b bd3d a371 c73a c3d2 6b3d
00000010: aec2 c0bd 0b35 733c a669 d63c a3db 17be
00000020: 031d 38bc 8925 143c 0d7f 89bd 0742 fbbc
00000030: e0bf cebd 0362 373c 079d febc 39ff 0a3d
00000040: bc7c e0bd bf40 d7bc f99b d5bd 8306 d53c
00000050: 21d1 9dbd f8b5 d6bd f05d 563b 77e7 583d
00000060: 89fb d1bd 42a5 6f3d 9c21 bbbc 69ef 133d
00000070: a75d 19bc d6fc 383d 2f65 933d 8824 aabd
00000080: 9b43 843d d9ba 8e3d 2550 b23d c1f8 c3bd
00000090: 8066 87bd 3eb0 7b3e 18e0 553e fc10 2c3e
000000a0: f6e8 4e3e 32af 12bd 5fa4 a43c 1125 ffbd
000000b0: 1474 033e ccaf 283d 0133 0bbc aaff c83d
000000c0: f713 933d 8512 06be e90f 963d 769b 0e3d
000000d0: 0081 4c3d 622f 40bd 9d49 d1b9 0625 1fbc
000000e0: 7c6a 88bd 29ad 153d 6864 cabd 7e1a 1e3e
000000f0: e13f 1fbe 56fb 233e 5013 cdbc a6e6 8bbd
00000100: 88de 59be 016c bcbd 2444 ba3d 787f f63c
00000110: 0990 713e f5a9 7dbe 1677 19be 0e15 d6bd
00000120: c626 78ba 4961 29bb 36cb 2a3e d1f0 623c
00000130: 318b 8dbd 4280 e73d 932c 04be 0710 7a3d
00000140: d499 163d cc50 21bd 3edc 3ebe dea4 5e3e
00000150: bdb8 023e e174 c5bd 354f 57bd 1681 9f3d
00000160: 5cf4 62bd d5a6 08be 7f3b 3fbe fbe2 8c3d
00000170: 0baf 753d b5b2 063c 520b 0fbd b486 d4bd
00000180: e51e 16bc 0f08 e6bd 9f0e 203d 3266 33be
00000190: 291f a8bc f6b7 5dbd 330a a73d 68f7 073c
000001a0: c145 31bd 80e7 d5bd 47e2 b2bd bec2 e4bd
000001b0: 3c9f 47bd 9733 35bd 6d47 1b3d 7f01 533c
000001c0: 31de 3dbe c16e fc3d 27f1 353e a60c 213d
000001d0: a9f3 2ebe 7015 0c3c d38a e6bd 9f8e ac3b
000001e0: 1a87 8cbc e2e7 863d eb44 29bd 8f24 71bb
000001f0: a9c9 1fbd 52c4 6fbb 79a6 d23d 8198 91bd
00000200: beed 90bd 62a8 6cbd f3f7 fe3d a056 913d
00000210: 2ac7 c13d 319f 53be 4c63 0dbe 6146 133e
00000220: 639a 973c 489a a2bd 273c acbd a105 b8ba
00000230: afe2 223e 7c8e 8c3d b7a9 8dbe bf7d 303e
00000240: bd80 7b3d 55fa b63d f0e8 753e 43da c3bd
00000250: db67 da3d 1873 8bbc f670 8b3d 2e4f 963d
00000260: c68b 093e a55f ae3d d64d eb3d e628 f73b
00000270: b1d3 e9bc 13df 4e3e 7a4a bcbd fa87 cd3d
00000280: 4a3b 4f3d c00c 46bd ecba 87bd 867d 173e
00000290: 9998 c43d 6d42 5bbd 5f52 3bbc da8f ef3b
000002a0: 1f7e dabd 2bc5 0a3d 8ad3 f9bd e18c 333e
000002b0: 8eda 0a3e 8b09 133e 5168 88bc 1ff2 e0bd
000002c0: 407f 82bd bd59 cf3d 2e6e 8b3d 72ce 1d3e
000002d0: c091 f53d f689 c63d b14a cabd ec8d 9ebd
000002e0: d81c cc3c eb8c 333e edd4 7a3c 57fa 603e
000002f0: 682f 00be e3e4 553d d083 043e 22eb 513d
00000300: 0721 58bd cf8f 08bd 7693 183e 8d0e 4a3e
00000310: 8a4b b7bd 51d9 3abe 3b0d a03d 5499 ecbd
00000320: a88b d0bc 9a2e 1bbe f0c8 473e 9205 13be
00000330: 8724 bf3d 8bdc 36bd e9e0 1fbd c0f1 65bd
00000340: e55b dabd 3362 e1bd 3839 8e3c 848a a8bd
00000350: 8a42 163c 8d58 ff3d 0f03 8c3b 0875 f23d
00000360: 1345 273e 508a 653c 34fa 863d bce4 d3bd
00000370: a90e debc e49e 9bbd 6c2f 6bbe 75a6 df3d
00000380: 5ee0 0dbe 0f84 ed3d fa7c 243e 0203 203e
00000390: 90f6 943d da02 2e3c 1d03 0d3e 26e5 f33c
000003a0: 043d 9b3d 736a 6e3c 54d2 683d 2bb2 053d
000003b0: 9ad4 e33a 3d06 2f3d fa92 dcbc 6699 e83d
000003c0: 9ba5 e33d 8139 ef3c 98ca 07bf 7285 243e
000003d0: 15b4 20bd 74c0 d53d f3b6 14be 7390 bdbd
000003e0: e18a 533e 3568 f2be 7e9c 1ebd f66f c43c
000003f0: fbd2 88bc 9807 99bd 2777 1bbe 228c b6bc
-0.17308778 0.092399254 0.0015216361 0.057574045 -0.09412132 0.014844189 0.026173424 -0.14829879
-0.011237386 0.009042152 -0.06713686 -0.030671133 -0.10095191 0.011192801 -0.031080736 0.033934806
-0.10961291 -0.02627599 -0.1043014 0.026004082 -0.07705904 -0.104839265 0.00327098 0.052955117
-0.10253055 0.05850721 -0.022843175 0.03611699 -0.009360707 0.045163 0.071970336 -0.08307749
0.06458207 0.06969232 0.087066926 -0.095689304 -0.06611347 0.2457895 0.20886266 0.16803354
0.20206055 -0.03581161 0.02009791 -0.12458242 0.12837249 0.041183278 -0.008496047 0.09814389
0.07181542 -0.13093002 0.07327253 0.034816228 0.04992771 -0.046920188 -0.00039918433 -0.009713417
-0.06660935 0.03654209 -0.09882432 0.15439793 -0.15551712 0.16013846 -0.025033623 -0.06831102
-0.21276295 -0.092002876 0.09095028 0.030090079 0.23590101 -0.24771865 -0.14986834 -0.104532346
-0.0009466227 -0.002584534 0.16679081 0.01385136 -0.06911314 0.1130376 -0.12907629 0.06105044
0.036767796 -0.039383695 -0.18638703 0.2174258 0.12765785 -0.096414335 -0.052565772 0.07788293
-0.05540882 -0.13344891 -0.1867504 0.068792306 0.059981387 0.008221318 -0.034922905 -0.10377255
-0.009162639 -0.11232006 0.039076444 -0.17519453 -0.02052267 -0.054130517 0.08156242 0.008298732
-0.043279413 -0.10444546 -0.08734565 -0.111699566 -0.048735842 -0.044238653 0.037909914 0.012878775
-0.1854179 0.12325812 0.17767774 0.039318703 -0.17085136 0.008550033 -0.11256947 0.005266025
-0.017154265 0.06587197 -0.04132549 -0.0036795472 -0.039010677 -0.0036585522 0.102856584 -0.07109166
-0.07076596 -0.05777777 0.12449636 0.070966005 0.09461816 -0.20666195 -0.1380741 0.14382316
0.018506235 -0.07939583 -0.08409911 -0.0014039763 0.15906785 0.06863114 -0.27668545 0.17235468
0.06140207 0.08934466 0.2401464 -0.095631145 0.1066434 -0.017022654 0.06808655 0.07339321
0.13432226 0.085143365 0.114894554 0.0075427173 -0.028543325 0.20202284 -0.09193893 0.10035701
0.05059365 -0.048352003 -0.066274494 0.14793977 0.09599418 -0.053530145 -0.011433213 0.0073108496
-0.10668587 0.03387944 -0.12198551 0.1753421 0.13559934 0.14359109 -0.016651304 -0.10983681
-0.06371927 0.10124538 0.068081245 0.15410784 0.1199069 0.09694283 -0.098775275 -0.07741913
0.024916098 0.17534225 0.0153095545 0.21970497 -0.12518084 0.052220237 0.12940907 0.05124963
-0.052765872 -0.03334027 0.14900002 0.19732113 -0.08949955 -0.18246962 0.078150235 -0.115526825
-0.025457218 -0.15154496 0.19510245 -0.14357594 0.09333139 -0.04464392 -0.03903285 -0.056138754
-0.10662059 -0.11005058 0.017361268 -0.08229545 0.009171138 0.124680616 0.0042728256 0.11838728
0.16334943 0.014010027 0.06590691 -0.10346362 -0.0271066 -0.07598665 -0.22967309 0.10920421
-0.1385512 0.11597454 0.160633 0.15626147 0.072735906 0.010620797 0.13770719 0.029772352
0.07579997 0.014551747 0.05684121 0.032640617 0.0017382086 0.04273056 -0.026925553 0.113573834
0.11115571 0.029202225 -0.5304351 0.1606653 -0.03923424 0.10437098 -0.14522915 -0.09256067
0.20658447 -0.4734513 -0.03872346 0.023979168 -0.016702166 -0.074721515 -0.15182172 -0.022283617

fc1.bias f4 [128]
00000000: 15aa 8fbd 9f69 64bd 9a00 123c f6b2 4e3d
00000010: b9f8 a0bd e6e2 dcbd ef4e f83d 0525 0d3e
00000020: ed7b 1fbe 9422 86bd c06f ad3d 984c 923d
00000030: 50ba 9f3c e8cd cfbd 3961 55bd f8da da3c
00000040: df95 6c3d 9e5e d7bd 58e8 063e 0c0d 643d
00000050: 23e6 d1bd e9b6 153d 150e c63d cf79 c43d
00000060: 754d 90bb 570b 88bd 545e ccbc e157 153c
00000070: afa1 e83d e0c4 00be f2d3 3abe 3ad4 adbd
00000080: e209 dabd 883b 0a3e b0ce 153e 85e5 bbbd
00000090: 695e 9ebd 208a 94ba adf2 173e 6452 973d
000000a0: f60a 813d 2ed9 10bd 9826 af3c fa06 7ebd
000000b0: 6376 8c3d 23f1 103e ad67 8bbd 7c28 ddbc
000000c0: b727 babd 548e e33d 5b96 1fbc 1675 d3bd
000000d0: 4762 133e 353a 12be 2881 ff3d 85bf da3d
000000e0: 96e8 953b 0d0b 6ebd 5cf0 cdbd bacd f43d
000000f0: fb4f 3eb9 f548 c93d c1d5 30bd 2aab 573e
00000100: d9c8 c83d fc78 873c de3a 2bbb a65f b33d
00000110: 3e1d 113e bb23 b83d 47aa a43d 1efb 1f3e
00000120: 9d3d 1a3e b7fe 033d 52f2 1b3d a65c eb3c
00000130: 5642 fdbd 6fff eebc 434c 42bd 72be 1fbe
00000140: 042a 273e b8ad c1bc a438 003e 5bcf 813d
00000150: ed18 dabd 38d0 283e ffa6 483c a9ee aabd
00000160: 2347 a83c 973a 463d b318 bc3d 40c9 fc3c
00000170: 1519 d23c 32ca 3e3e f831 11be c71c 433d
00000180: 9b18 b33c b697 c73d 0fc9 cd3d 1372 a9bd
00000190: f033 2dbc c635 be3d 7880 0d3e 4dd4 103e
000001a0: 1fe5 903d 41cf dbbd 563a efbc f698 b7bc
000001b0: 0cb7 043e 6c7e 0dbc 3b3c 483d 83d1 11be
000001c0: 518a f5bd 8fea 2d3e f1b0 b8bd 9272 613e
000001d0: f98e efbc 0648 c83d 0422 9cbd 8cfd 733d
000001e0: ec0c a83d 6601 15bd 8ce4 2dbd 8639 8a3d
000001f0: c5a3 823d 6a9d ff3d 4990 b83d cb2a 973d
-0.070148624 -0.05576479 0.008911276 0.05046364 -0.0785994 -0.10785465 0.121244304 0.13783653
-0.15574618 -0.06549564 0.0846858 0.07143515 0.01949802 -0.101466954 -0.052094672 0.02671574
0.057760116 -0.10516094 0.1317457 0.055676505 -0.10248973 0.03655139 0.09670655 0.09593546
-0.004403765 -0.06642788 -0.024947323 0.00911519 0.11358964 -0.12575102 -0.18244913 -0.08487745
-0.10646416 0.13499272 0.14629626 -0.09174637 -0.07732851 -0.0011332668 0.14838667 0.07388762
0.06300919 -0.03536337 0.021380708 -0.062018372 0.06858518 0.14154486 -0.06806884 -0.026996844
-0.09089606 0.11111131 -0.009740437 -0.10325067 0.14392959 -0.14280017 0.124758065 0.10681061
0.0045748455 -0.058116008 -0.100556105 0.11953302 -0.00018149607 0.098283686 -0.0431726 0.21061388
0.09803934 0.016537182 -0.0026127617 0.08758478 0.14171311 0.0899119 0.0804029 0.15623137
0.15062566 0.032225337 0.03807289 0.028730702 -0.12366168 -0.029174535 -0.04743601 -0.15599993
0.16324621 -0.023642406 0.12521607 0.06338378 -0.106492855 0.16485679 0.012246846 -0.08346302
0.020541733 0.04839572 0.091843985 0.030857682 0.025646726 0.18631819 -0.14179218 0.047634866
0.021862319 0.097457334 0.100481145 -0.08273711 -0.010571465 0.092876 0.13818538 0.14143486
0.070749514 -0.1073289 -0.029202621 -0.022411805 0.12960452 -0.008636098 0.048885565 -0.14240079
-0.119892724 0.16984008 -0.09018124 0.22016361 -0.02924298 0.097793624 -0.076236755 0.059567973
0.0820559 -0.036378287 -0.042454287 0.06749253 0.06378893 0.12481196 0.09011895 0.07381209

fc2.weight f4 [2, 128]
00000000: 8191 c4bd a0c1 2a3e 967e fdbd f1e4 373c
00000010: b7e9 573e d075 983c f2ff c63d 4b97 73be
00000020: 66a7 2cbd 43e0 28bc 6e83 57be 9546 2dbd
00000030: 2918 91bd 6005 1dbe 71c6 6b3e 8c53 38be
00000040: aa68 453e a827 603d 80c0 23be 6f73 e13d
00000050: 643a 953c 8780 8d3b 1882 653e 779e 133e
00000060: 28dd 5e3e 8b19 99bc 4d03 0bbe 17da 693e
00000070: 11f0 a0bd 1df3 e83d 5df0 b53d 3c36 4c3c
00000080: d1b0 a7bd 9ac3 b43a 03bf 32be 06b8 a7bd
00000090: 1a8d 16bd 7e1a 05be 703d 16be f3ee 563e
000000a0: 712c 703e 9f51 d33d c287 b0bd d331 8a3e
000000b0: f4a5 833e ce89 74bd ace2 e9bd eb95 f8bc
000000c0: 4cfc 823e 3cd7 d7bd c6f2 9fbd 3b42 d8bd
000000d0: 8f79 8ebd 91d5 c33d 6528 cfbd 18fa dc3a
000000e0: 6d30 2dbe f06c 6f3b 0fdd 06be fdac 2bbe
000000f0: d871 a5bd c0a8 fcbd 34d7 843d 6f91 debd
00000100: c22e 45bd 71a3 9fbd 6171 2abd 9cb4 433e
00000110: 7cd2 50be d9ea 09be ac65 2c3e f793 1dbd
00000120: 5f29 8e3d a3c8 3fbd ee1c 803d b823 a4bd
00000130: 5722 c8bd e009 e23d 0494 f2bd 4043 8d3e
00000140: 16f3 7cbd 83c0 af3d 3027 53bd 72b9 283e
00000150: a4cd f83d 603a f73c 7477 35be 4803 3dbd
00000160: 1f50 a53d 46fc 973b 3572 5c3e b383 ae3b
00000170: fc9d ea3d 9279 533d c240 c23d 0eb0 94bd
00000180: 837c fb3c a241 24be a199 88bd 23a4 053e
00000190: 8f35 80bd c5de 23be e7f0 f5bd fed6 7fbd
000001a0: 6c8e 82bd 4707 953e 6339 0b3e baf1 5a3e
000001b0: 6512 a3bd af42 d7bd ecaa d73c 618b 0e3e
000001c0: 7214 8b3d 25e1 86bd 9707 6fbd 4285 3abe
000001d0: ec38 823e 3838 9f3d 428d f63d 8bdc 453d
000001e0: 508f 993e 5cc1 aa3d efff 913e ce39 3abe
000001f0: 3356 893d 46da a5bd 5e04 d33d dffd d7bc
00000200: ba50 f73d 314b 8bbc 60bf ef3d f443 b4bd
00000210: 3229 31be 9cab 853d dcc4 21be 1269 3c3e
00000220: 96a8 6bbd 5793 e1bd 5b05 ed3d e68c 9a3d
00000230: 6e80 a53b 2f66 1c3e be75 33be 4222 663e
00000240: 0e88 5cbe 4fcd e3bd 5867 333e 63f3 24be
00000250: 4b0b 72bd 75a5 8cbd 082c 20be 3c68 79be
00000260: 65cf bcbd 21c4 cd3d b9d3 0e3e 4204 88be
00000270: d2a3 3cbd 8aa6 91bd 75ec a5bd e9f4 1e3d
00000280: 02ba c2bc 645f 193d e005 443e f704 003e
00000290: 28fb c53c b61c eb3d a057 033e 0615 15be
000002a0: 0b50 26be b884 f5bd 5540 053d 2b59 fbbd
000002b0: 7e7a 57be 4457 af3d 6a5f 863d 433d 95bd
000002c0: 3bb5 7fbe d3f6 be3d 65c8 efbc 7c4d d73d
000002d0: 6d51 323d 8825 08be 3140 ac3d 0938 ac3d
000002e0: 6c51 a63d 6e55 b53d cb57 2a3d 00bb b13d
000002f0: 414b 0ebd 0878 bc3c 533c 73bd 3bae 3c3d
00000300: c310 973c 00f3 e83d 70d7 063e 79e8 29be
00000310: 0f77 b03d 784d 283e 7ae9 2cbe 7bfa b8bb
00000320: 9e5d 45be 3f48 88bc eac5 1c3d f4a2 9c3d
00000330: bc10 003e 71be 2e3d 163b 323d b578 88be
00000340: 8a2f 453d 3eab 6dbd dc54 fcb9 1c32 1abd
00000350: b894 bfbd 7fc2 c03d 0bf8 423e fbd7 aabd
00000360: 1b96 9cbd e278 b0bd 6fae f6bd 2f7e c33d
00000370: 65a1 dfbd 8cda d8bd ff6e cabd b91f 423e
00000380: 87ec d4bd ff4c f33d 5a6c c7bb c5e0 58be
00000390: 4948 97bc 1e52 1e3e 3711 593e e6c0 debc
000003a0: 086a a23b 102a 57be a2ae 32be 3162 8abe
000003b0: 720b 96bc 5cb2 853d 163b 8cbd 7481 babd
000003c0: 6648 4cbd adf7 3c3e c848 acbd 809b c73d
000003d0: bc28 24be 07bc 87bd 83b4 02be 83ea efbd
000003e0: 951e 9dbe d0d9 60be 54f6 72be 1b04 823e
000003f0: 340a 92bd e7a2 b93d caaf bcbd a417 083d
-0.09598065 0.16675425 -0.1237766 0.0112240175 0.21085249 0.018610865 0.097167864 -0.23788182
-0.04215183 -0.010307374 -0.2104623 -0.04230364 -0.07084686 -0.15334082 0.23024918 -0.1800062
0.19278207 0.05472532 -0.15991402 0.11008345 0.01821632 0.0043183 0.22412908 0.14415918
0.21764052 -0.018688938 -0.13575478 0.22837101 -0.07858289 0.11374495 0.08883736 0.012464102
-0.08188022 0.0013791204 -0.17455678 -0.081893966 -0.03675566 -0.12998387 -0.14671874 0.2098959
0.23454453 0.10318302 -0.08619644 0.26991138 0.2571255 -0.059701733 -0.11420187 -0.030344924
0.25583112 -0.105390996 -0.07809977 -0.105595075 -0.06956779 0.09562219 -0.101151265 0.0016859202
-0.16913004 0.0036533438 -0.13170265 -0.16765209 -0.080783546 -0.12336874 0.06486359 -0.10867583
-0.048140295 -0.07794846 -0.041612033 0.19111866 -0.20392793 -0.13468494 0.1683566 -0.03847119
0.06941485 -0.0468222 0.06255518 -0.08014625 -0.09772175 0.1103704 -0.11844638 0.2759037
-0.061755262 0.085816406 -0.051551044 0.16476992 0.12148598 0.030179203 -0.17721349 -0.046145707
0.080719225 0.0046382276 0.21527942 0.0053257584 0.114559144 0.05162961 0.09485008 -0.07260142
0.03069902 -0.16040662 -0.066699274 0.13050894 -0.062602155 -0.16002949 -0.12008839 -0.062460892
-0.06374821 0.29107115 0.1359611 0.21381274 -0.07962493 -0.10510766 0.02632662 0.13920356
0.06791009 -0.06585912 -0.058356848 -0.18214896 0.25434053 0.07774395 0.120386615 0.04830603
0.2999215 0.083376616 0.28515574 -0.18186113 0.06705894 -0.08098273 0.10303567 -0.026366172
0.12075944 -0.017003627 0.11706424 -0.088020235 -0.17300871 0.065268725 -0.15797752 0.18399456
-0.057533823 -0.11014431 0.11573287 0.075464055 0.0050507104 0.15273355 -0.17525384 0.22474006
-0.21536276 -0.11123144 0.17519891 -0.1610847 -0.0590928 -0.06867496 -0.15641797 -0.24356169
-0.09219245 0.10047174 0.13947953 -0.26565748 -0.04605467 -0.07111843 -0.08101741 0.038807783
-0.023770336 0.037444487 0.19142866 0.12501894 0.024167612 0.114800856 0.12826395 -0.14558801
-0.16241471 -0.11988205 0.032532055 -0.12272867 -0.21042821 0.085615665 0.065611675 -0.07287075
-0.24971478 0.09324422 -0.02927036 0.10512826 0.043534685 -0.13295567 0.08410681 0.08409125
0.08120999 0.08854185 0.041587632 0.086782455 -0.034739736 0.023006454 -0.0593837 0.046064597
0.01844061 0.113744736 0.1316812 -0.16592588 0.086164586 0.16435802 -0.16885939 -0.005645094
-0.19273993 -0.016636012 0.038274683 0.07648268 0.12506384 0.042662088 0.04351338 -0.26654592
0.04814104 -0.058024637 -0.0004812841 -0.037645444 -0.09354538 0.09412097 0.19039933 -0.08341976
-0.07645818 -0.086168066 -0.12044989 0.09545552 -0.109194554 -0.105885595 -0.09884452 0.18957414
-0.103966765 0.1187992 -0.0060859146 -0.21179493 -0.018467085 0.15461013 0.21197973 -0.02719159
0.0049564876 -0.2101214 -0.1744943 -0.2702804 -0.018316004 0.0652816 -0.06847207 -0.091067225
-0.049873732 0.18453856 -0.084123194 0.09746456 -0.16031164 -0.0662766 -0.12764172 -0.117146514
-0.30687395 -0.21958089 -0.23726779 0.25393757 -0.07130852 0.09064274 -0.092132166 0.03322567

fc2.bias f4 [2]
00000000: 94a6 e8bb a04c d63c
-0.007099936 0.026159585
