best_NN_model.pth (torch, 7936 bytes, 4 tensors)

fc1.weight f4 [32, 42]
0.46745905 -0.009880884 -0.034502678 -0.048070103 0.11080201 -0.09293823 -0.48011076 0.74193746
0.26705942 -0.26795506 -0.022519885 0.12922746 0.025600525 0.124781184 0.31362554 0.19629252
-0.22703849 -0.033902965 -0.14828545 0.07463673 -0.9011628 0.08390517 0.0771604 0.026842332
0.029558895 -0.24212722 0.26681915 -0.15247531 -0.34708092 0.11509476 -0.44015372 1.5141007
-0.209135 0.17414412 0.4843781 -0.07703126 0.73819304 -0.5009688 -0.31916556 0.18438314
-0.058304925 0.47691125 -0.0705867 -0.1568108 -0.105810486 -0.033957765 -0.082400985 -0.011068598
-3.304091 0.25748086 -0.8927557 -0.5595178 -0.058734983 -0.28523234 -0.07490366 -0.024147939
0.0009581061 0.024218593 -0.011273434 0.1894088 -0.09214673 0.055032283 0.41254193 0.08305757
0.22694708 0.12379153 0.01314385 0.037268773 0.05770172 0.42382568 0.44243643 0.09385772
0.07731982 0.031015608 0.58523375 0.19499356 -0.05930227 0.2069663 -0.7151985 0.06754226
-0.13071406 -0.21483825 0.08311824 0.30983907 0.08798043 0.02738991 0.1436805 0.15816009
-0.38636932 0.03756264 1.5479503 -0.5369379 0.5936988 0.53417134 -0.10108028 -0.01309074
0.0646035 -0.009825469 -0.05657541 0.10898258 0.18656525 -0.16229479 -0.2598447 0.04025965
0.095713094 -0.2595217 -0.10400609 0.13021253 -0.12981972 -0.059399646 0.058782093 -0.43850422
0.084577784 0.18523176 0.5586164 -0.42589068 -0.21934904 -0.14509557 0.48603672 -0.042962193
-0.4882663 0.17081515 0.33219728 0.28496662 0.7331091 -0.13350493 -0.048643313 0.077550866
-0.11146272 0.52667755 -0.015689531 -0.0034746092 -1.6930475 0.50359446 0.6003921 -0.12934229
0.23316704 0.42547676 0.19537379 -0.03532619 -0.4090424 -0.17787637 -0.114747584 0.054812625
0.047337472 -0.014166586 -0.3720412 0.051889453 -0.030631926 0.081099704 -0.0046920325 0.053458467
0.15211067 -0.9572463 -1.2968417 -0.16892359 -0.07135945 0.11696204 -1.0503243 -0.706933
0.3377885 -0.33488873 -0.2343027 -0.43100208 -0.7951822 -0.038144834 -0.11819266 -0.3339382
-0.15007696 -0.0910684 -0.019091194 -0.070492886 -0.043912843 -0.17692289 0.110872336 -0.0865381
0.04482052 0.04272931 -0.11314598 0.07075445 0.09170917 0.012639016 -0.050825052 0.115436986
-0.043762356 0.095574364 0.059138745 -0.05738359 0.11722864 0.022984847 0.10462729 -0.03133985
-0.11602737 -0.09963369 0.0016152859 -0.13502744 -0.06852221 0.03555979 0.00088788726 -0.01250796
-0.06577644 -0.06237068 0.038427904 -0.078422435 -0.06655057 -0.034918003 0.01984249 0.07497606
0.07730901 -0.008759613 -0.07954769 0.29923832 -0.09635188 -0.1776323 0.16051857 0.012170999
-3.8193862 0.9693772 0.12326405 -0.3239483 -0.10725063 -0.3648443 0.036844533 0.28571722
0.18992305 0.31668 0.02234377 -0.015681427 0.026267447 -0.07969335 -0.294285 0.024000393
0.051520936 0.0865415 -0.1898267 -0.043681443 0.20814662 0.25445828 0.12674068 0.06445067
-0.016686434 0.3102841 -0.08888155 0.12655693 -0.047130197 0.191914 0.15103833 -0.25922137
0.119172454 -0.1863986 -0.43870983 -0.3162584 0.14843571 -0.22075944 -0.08793829 0.27627668
00000000: cb56 ef3e 6ee3 21bc ae52 0dbd 28e5 44bd
00000010: 2aec e23d 6656 bebd 14d1 f5be 9def 3d3f
00000020: 03bc 883e 6831 89be 9f7b b8bc 3454 043e
00000030: 31b8 d13c 478d ff3d 8793 a03e e800 493e
00000040: c77c 68be d6dd 0abd 24d8 17be 24db 983d
00000050: 9bb2 66bf 79d6 ab3d 4606 9e3d 73e4 db3c
00000060: 7f25 f23c 33f0 77be 859c 883e 7d22 1cbe
00000070: 97b4 b1be cdb6 eb3d d45b e1be 0dce c13f
00000080: 7c27 56be d652 323e 6800 f83e 91c2 9dbd
00000090: 38fa 3c3f 7e3f 00bf ab69 a3be efce 3c3e
000000a0: 25d1 6ebd b62d f43e c38f 90bd 0393 20be
000000b0: 2bb3 d8bd 4c17 0bbd d9c1 a8bd 1159 35bc
000000c0: 3a76 53c0 88d4 833e a38b 64bf 8f3c 0fbf
000000d0: 1894 70bd f909 92be 1767 99bd e6d1 c5bc
000000e0: 6929 7b3a 1266 c63c 36b4 38bc 61f4 413e
000000f0: 6db7 bcbd 8869 613d b238 d33e 161a aa3d
00000100: d164 683e 6a86 fd3d 4d59 573c 24a7 183d
00000110: a458 6c3d aeff d83e 0787 e23e 7a38 c03d
00000120: db59 9e3d 7214 fe3c e1d1 153f 64ac 473e
00000130: f0e6 72bd f9ee 533e 4017 37bf 9953 8a3d
00000140: e8d9 05be 8ffe 5bbe e539 aa3d 3aa3 9e3e
00000150: 152f b43d ce60 e03c fb20 133e b8f4 213e
00000160: 33d2 c5be 48db 193d 3c23 c63f c374 09bf
00000170: a5fc 173f 74bf 083f 2e03 cfbd 8b7a 56bc
00000180: d74e 843d 01fb 20bc 9ebb 67bd 4232 df3d
00000190: f60a 3f3e 9b30 26be 5d0a 85be 4ee7 243d
000001a0: 3a05 c43d 07e0 84be 2501 d5bd 6f56 053e
000001b0: 76ef 04be 0b4d 73bd 7ec5 703d a083 e0be
000001c0: 1e37 ad3d 65ad 3d3e 7c01 0f3f 580e dabe
000001d0: 099d 60be ef93 14be ced9 f83e 20f9 2fbd
000001e0: 0afe f9be 2bea 2e3e c315 aa3e 25e7 913e
000001f0: 0aad 3b3f 84b5 08be 363e 47bd fdd2 9e3d
00000200: 9146 e4bd 57d4 063f 5587 80bc 45b6 63bb
00000210: c8b5 d8bf 91eb 003f 4cb3 193f 4e72 04be
00000220: 57c3 6e3e 17d8 d93e 1110 483e 32b2 10bd
00000230: 016e d1be 3925 36be c800 ebbd 3483 603d
00000240: f0e4 413d f81a 68bc 2f7c bebe 098a 543d
00000250: ceef fabc 9a17 a63d 9fbf 99bb 44f7 5a3d
00000260: e6c2 1b3e 180e 75bf e9fe a5bf 4efa 2cbe
00000270: e724 92bd cb89 ef3d 0771 86bf 90f9 34bf
00000280: 9df2 ac3e 8976 abbe 0ced 6fbe 4eac dcbe
00000290: 1091 4bbf c23d 1cbd fe0e f2bd f3f9 aabe
000002a0: c6ad 19be 1282 babd 2365 9cbc 935e 90bd
000002b0: f4dd 33bd 462b 35be 0911 e33d e33a b1bd
000002c0: b995 373d ee04 2f3d 14b9 e7bd b6e7 903d
000002d0: 04d2 bb3d e013 4f3c ee2d 50bd 3a6a ec3d
000002e0: 2840 33bd 7ebc c33d 783b 723d 0e0b 6bbd
000002f0: 9215 f03d b84a bc3c d546 d63d 375e 00bd
00000300: c29f edbd c00c ccbd 00b8 d33a a244 0abe
00000310: 5f55 8cbd 24a7 113d 1bc1 683a 30ee 4cbc
00000320: ccb5 86bd 6678 7fbd 9466 1d3d f19b a0bd
00000330: aa4b 88bd 2e06 0fbd b88c a23c 0c8d 993d
00000340: 3054 9e3d 7b84 0fbc e6e9 a2bd c435 993e
00000350: 2254 c5bd 3ee5 35be fb5e 243e df68 473c
00000360: d370 74c0 1b29 783f dd71 fc3d 8ddc a5be
00000370: 38a6 dbbd dfcc babe 4bea 163d 8749 923e
00000380: 307b 423e e223 a23e 480a b73c 5676 80bc
00000390: d42e d73c 4436 a3bd 86ac 96be 799c c43c
000003a0: 9e07 533d ac3c b13d ee61 42be 50eb 32bd
000003b0: 6324 553e 5b48 823e 4fc8 013e b6fe 833d
000003c0: fdb1 88bc 8fdd 9e3e 8807 b6bd 2498 013e
000003d0: 980b 41bd 1b85 443e cba9 1a3e aab8 84be
000003e0: b010 f43d 46df 3ebe 939e e0be 9fec a1be
000003f0: 88ff 173e c30e 62be fd18 b4bd 2374 8d3e

fc1.bias f4 [32]
0.16129652 -0.085658535 -0.13865742 0.41526103 -0.08201865 0.30965024 0.033544917 -0.04742826
0.063262634 0.1816227 -0.023634454 -0.26642758 -0.13197838 0.28922483 0.004537513 0.2820142
0.16763838 0.06563789 0.06794411 0.28517413 -0.08363962 0.121465884 0.026653906 -0.04636255
0.36606082 -0.15670425 0.050938394 0.008366302 0.44706318 -0.07924121 -0.19518793 -0.036054224
00000000: ea2a 253e be6d afbd 36fc 0dbe 189d d43e
00000010: 65f9 a7bd 7a8a 9e3e 6566 093d 2344 42bd
00000020: d78f 813d 4dfb 393e 0b9d c1bc 3269 88be
00000030: 5725 07be 4715 943e 6baf 943b 2a64 903e
00000040: 65a9 2b3e 286d 863d 4826 8b3d 5802 923e
00000050: 404b abbd 1bc3 f83d 4b59 da3c a8e6 3dbd
00000060: 536c bb3e 1477 20be c7a4 503d d012 093c
00000070: 77e5 e43e 3749 a2bd 58df 47be 98ad 13bd

fc2.weight f4 [2, 32]
-0.6834164 0.85285187 -0.01226725 0.8237206 0.03895869 0.9040291 0.7542367 0.45791048
1.0675461 0.95639277 -0.045397326 0.536989 0.05404882 0.44371232 -0.038446575 1.1705799
1.0410583 -0.14986841 0.21387868 -0.8901909 -1.2114269 -1.2208191 -1.2205012 1.523282
0.40134066 0.06442029 -0.42372537 0.12537338 0.50728005 0.7533199 -0.18652293 -0.21680859
0.75402665 -0.7463366 0.08463824 -0.62429965 0.120847754 -0.7043276 -0.55901384 -0.5558247
-1.3904413 -0.7121863 -0.038803685 -0.4708864 -0.113998 -0.41322917 -0.06939437 -1.3556099
-1.247981 0.25943312 0.0595943 0.69893676 1.0386443 1.148052 1.139003 -1.482468
-0.2192141 0.071067676 0.23666148 -0.31435823 -0.5126362 -0.61784136 0.41405904 0.084377706
00000000: 61f4 2ebf 8054 5a3f 93fc 48bc 5adf 523f
00000010: 2693 1f3d 736e 673f a815 413f 3e73 ea3e
00000020: 5aa5 883f 28d6 743f 8cf2 39bd 1c78 093f
00000030: 4c62 5d3d 432e e33e 287a 1dbd 90d5 953f
00000040: 6641 853f 1b77 19be 0303 5b3e 8de3 63bf
00000050: 0910 9bbf cd43 9cbf 6239 9cbf e8fa c23f
00000060: 867c cd3e c9ee 833d 88f2 d8be e161 003e
00000070: 1bdd 013f 93d9 403f deff 3ebe 1203 5ebe
00000080: e407 413f ea0f 3fbf d056 ad3d 1ad2 1fbf
00000090: 077f f73d d04e 34bf 881b 0fbf 874a 0ebf
000000a0: fbf9 b1bf d751 36bf 9df0 1ebd 0618 f1be
000000b0: c977 e9bd c692 d3be a31e 8ebd a084 adbf
000000c0: d7bd 9fbf 6bd4 843e 2719 743d 85ed 323f
000000d0: 4cf2 843f 5ef3 923f daca 913f 83c1 bdbf
000000e0: a979 60be ee8b 913d 6357 723e 90f3 a0be
000000f0: 203c 03bf da2a 1ebf 8cff d33e 38ce ac3d

fc2.bias f4 [2]
-0.049715087 -0.09741311
00000000: 0ca2 4bbd 8680 c7bd
