best_NN_model.pth (torch, 30848 bytes, 4 tensors)

fc1.weight f4 [128, 53]
000000 7d 77 34 3c 9d b2 a2 3d 66 c5 24 3c 0c d9 37 be
       0.011014816 0.07944224 0.010056829 -0.1795389
000010 e7 89 91 bf c9 a5 25 3b 0f 98 cf bc a9 e8 69 bd
       -1.137021 0.0025275818 -0.025341062 -0.057106648
000020 98 66 ae bd c9 91 89 3d 97 03 22 3f a1 37 bd bf
       -0.08515662 0.067172594 0.6328673 -1.4782602
000030 e3 38 3a 3e 72 ec 1f bf 58 6f 9e 3b 95 ef 27 bd
       0.18185763 -0.6247016 0.0048350506 -0.040999968
000040 2d 51 01 c0 47 b3 c1 3d 60 b3 88 3e fb de 71 bd
       -2.0205796 0.094580226 0.26699352 -0.05905054
000050 9c 03 0a bf f2 10 9e bd 9a 62 91 3e 0f fc 6f 3e
       -0.5391176 -0.07718076 0.2839554 0.23435996
000060 ad fc af bf c2 5c c9 3e 53 12 03 3e 16 79 36 3e
       -1.3748986 0.3932858 0.12799959 0.17819628
000070 d1 ae a1 bd ea b5 f4 be c9 83 f5 3c 63 51 78 bf
       -0.07894672 -0.4779504 0.029970067 -0.96999186
000080 c7 fa 69 3b 86 c9 a1 3e 1e cb 09 3f f3 39 62 3e
       0.0035702453 0.31599063 0.5382556 0.22092418
000090 97 1c 34 bf 34 8e 56 3e b3 fd 24 be f3 4f 5d be
       -0.70356125 0.20952684 -0.16112404 -0.2161253
0000a0 c8 4d 40 be d2 5f d5 bd 80 94 61 3d 6f d6 5c 3e
       -0.18779671 -0.10418667 0.05507326 0.21566175
0000b0 41 44 ef 3d 36 97 a0 bf 93 b0 8a 3e ff bf d1 be
       0.1168294 -1.2546146 0.2708784 -0.40966794
0000c0 3b 08 54 3e ef 89 09 3e 54 42 c6 3d 66 61 e3 bd
       0.20706265 0.13431524 0.0968062 -0.11102562
0000d0 96 c5 c5 3c 6c 85 6b bd 33 33 2a bf c5 aa 81 bd
       0.024142068 -0.057500288 -0.66484374 -0.063314
0000e0 dc 28 bc 3c 9b 9d ca bb f5 78 b9 3a 2c a5 20 3e
       0.022968702 -0.006183339 0.0014150428 0.15688008
0000f0 da bc de 3d e7 16 1b be d1 7c be bd 9c 61 14 3f
       0.10875864 -0.15145455 -0.093011506 0.5796144
000100 18 a5 69 bf fc 4d 2b bf 83 b3 57 bf 8f 9b 80 be
       -0.9126754 -0.6691587 -0.8425829 -0.25118682
000110 b8 a8 1a 3f 13 aa d7 bf 0c cc 89 be 7d 17 0d 3f
       0.60413694 -1.6848778 -0.26913488 0.55113965
000120 2f aa 11 bf 3b 57 a7 bf 8f e6 90 bc a9 81 3c bd
       -0.56900305 -1.3073496 -0.017688064 -0.04602209
000130 23 5a 08 3e 1e cb 21 bf aa bc 1b 3f 29 5f bb be
       0.13315634 -0.6320056 0.60834754 -0.3659604
000140 e3 ae 4e 3e bd 73 6c bf c2 8b 1e 3e 8c e1 86 3d
       0.20183901 -0.923641 0.15483001 0.065859884
000150 a9 ae bf 3b 8f db 7d be b5 d9 09 bf de e1 67 be
       0.0058496785 -0.24790786 -0.5384782 -0.22644755
000160 27 0c 49 be 3f af a6 3d dc 07 dc 3e da 6b 2a bf
       -0.19633542 0.08138894 0.42974746 -0.6657082
000170 d7 39 ff 3c 4e e7 b4 3d 04 dd 28 be d0 d0 56 be
       0.03115551 0.0883318 -0.16490561 -0.20978093
000180 15 7a 1c 3f fc 13 2a be 6c 06 84 bd 49 f0 30 be
       0.6112378 -0.16609186 -0.064465374 -0.17279162
000190 0d fd 30 3e 10 91 25 be 03 1a 86 be 6d 0a 75 3d
       0.17284031 -0.16168618 -0.2619172 0.059824396
0001a0 8d f7 69 3d 96 43 5b bd c3 85 08 be 3f f9 50 be
       0.05712085 -0.05353125 -0.13332276 -0.2040758
0001b0 3d a2 e6 bd 07 fc 8f bd ae 63 06 bd 8f be 8b bd
       -0.11261413 -0.07030492 -0.032809906 -0.068234555
0001c0 b9 0c 13 3d 52 70 53 3e af b6 84 3e 53 68 7d be
       0.035900805 0.20648316 0.25920627 -0.24746828
0001d0 b7 be f2 bd 32 1b 51 3e 60 ec 3e 3c da 66 7d bd
       -0.11852782 0.2042053 0.011653036 -0.061865665
0001e0 47 34 3c 3d 1a 10 6f be e7 c1 22 3e 94 f5 94 3e
       0.045948293 -0.23345986 0.1589428 0.2909361
0001f0 a3 d9 bd bd 9c 34 13 3e 90 d0 b1 bd c5 2b f5 3c
       -0.092700265 0.14375538 -0.08682358 0.029928098
000200 78 ab 46 3e c3 27 22 3d e1 d0 2f bc 5a ea d3 3e
       0.19401348 0.0395887 -0.010730953 0.41389734
000210 ff 07 5f 3e f6 ce d5 bd dc f7 58 3e 37 3a d6 3d
       0.21780394 -0.10439865 0.21188301 0.10460322
000220 63 34 97 3d 11 72 75 3e 90 8e 04 3f 22 a0 d9 bd
       0.07383039 0.23969294 0.51780033 -0.10626246
000230 3b 27 13 3e c3 cc 65 be ef a1 92 3e 70 05 45 3e
       0.14370434 -0.22441392 0.2863917 0.19240355
000240 f6 51 97 3e 90 a9 08 bc 6a 15 0f bd 0f 15 76 be
       0.2955472 -0.008341208 -0.03493253 -0.2403147
000250 eb 54 11 be 43 c9 89 bd ab f9 78 be 87 24 eb 3c
       -0.1419255 -0.06727841 -0.24313991 0.028703941
000260 8d 65 9d 3d 2d 04 ab 3e 42 24 64 3e 62 78 2f 3e
       0.07685385 0.33401623 0.22279456 0.17135766
000270 a0 e1 0b 3d a3 fd 82 3d a3 73 41 be dc a9 50 3d
       0.03415072 0.063960336 -0.18891768 0.05094324
000280 f7 78 99 3d bc f3 88 3c eb c7 56 be 67 47 40 bd
       0.07493775 0.016717784 -0.209747 -0.046943095
000290 dd a0 d7 3c 62 63 1c bd f9 44 e6 3c 72 82 a8 bd
       0.026321823 -0.038180716 0.02810906 -0.082280055
0002a0 3a 3a cb bc 4d 6b e7 3e 90 d9 d1 3e 61 a3 de bf
       -0.024808038 0.45199051 0.409863 -1.7393609
0002b0 e9 b3 65 3e b2 17 88 3e e4 24 32 be 7b 7e 58 3e
       0.22431912 0.26580578 -0.17396885 0.21141998
0002c0 f2 be 9a bd 5c fb 16 be 41 5d e1 3d d5 48 19 be
       -0.07555951 -0.14744323 0.11004115 -0.1496919
0002d0 25 5a b4 bd 32 41 e8 3e 7a 69 62 3e c1 eb 7e bf
       -0.08806256 0.4536224 0.22110549 -0.9957848
0002e0 d6 5a 5f 3e d5 27 9b 3d ec 93 cb 3e e7 13 3a 3a
       0.21811995 0.07575957 0.39761293 0.00070983026
0002f0 70 2a 50 bf af c2 ab bd 19 1b 87 3e c8 c5 41 3e
       -0.81314754 -0.08386742 0.2638786 0.18923104
000300 7b 16 d8 3e c7 c1 81 bf de 6a 1b bf f0 ef 2d 3e
       0.4220465 -1.0137261 -0.6070994 0.1698606
000310 68 b9 17 bf 4c 43 1d 3d ea 6b b3 be 4a a7 40 bf
       -0.5926728 0.038394257 -0.3504327 -0.7525526
000320 7e d4 80 be bd b8 0c be 9e d5 e3 3e a4 6e db 3d
       -0.2516212 -0.13742347 0.44498914 0.107144624
000330 0c 40 0d 3e ef a0 74 bd 0a bc 5a 3e 70 38 89 be
       0.13793963 -0.05972379 0.21360794 -0.2680087
000340 15 a6 b2 bc 08 6b ec 3c e4 0b d4 3d e7 b2 e8 bb
       -0.02180771 0.02885963 0.103538305 -0.007101405
000350 2b 95 c1 3c 3a 36 db 3d 0c db a3 bd 2e 0f bb 3c
       0.0236307 0.10703702 -0.08000764 0.022834387
000360 dc 3e 51 3e 6c 9a 05 3e fc d6 5b bd ee 4f 68 bd
       0.20434135 0.13047189 -0.053671822 -0.056716852
000370 5c 82 a5 3e 97 ce 6b bb b0 bf 4b 3c 84 95 95 3d
       0.3232602 -0.0035981291 0.012435839 0.073039085
000380 a3 f4 06 3e 3d 28 29 3b d6 83 27 3e dd c9 15 3e
       0.13179259 0.0025811337 0.16358885 0.14627786
000390 f1 e4 85 bd ca 8e 2d 3c ee bb 8a bd e2 9c 94 3a
       -0.06537808 0.010593126 -0.06774126 0.0011338259
0003a0 8f 5a d4 bd 0d 9d 02 be 97 67 fe 3d 4d e5 ab 3c
       -0.10368835 -0.12755223 0.12422102 0.020983363
0003b0 f0 47 d5 bb 20 c2 09 be ea c7 b9 3d 6a 6e 6c 3e
       -0.0065088198 -0.13452959 0.09071334 0.23088995
0003c0 eb 47 87 bc cc 0c 84 bd 49 71 9f 3e 3d 03 71 3d
       -0.016513785 -0.06447753 0.31141117 0.05884098
0003d0 0f f8 a7 bd 94 8f 3f bd 8d 4e 60 3e 82 e0 23 be
       -0.0820161 -0.046767786 0.21904965 -0.16003612
0003e0 47 ab 52 bd b5 69 f8 3d b8 65 2c 3e 14 81 dd 3d
       -0.051432874 0.12129537 0.16835678 0.10815635
0003f0 6f 3c 6f bc f4 ae 2c 3e f6 c5 13 3d 51 76 2a 3e
       -0.014601811 0.16863614 0.036077462 0.16646697

fc1.bias f4 [128]
000000 99 ca 44 3d 93 7e 28 3d fc f1 e8 3d 37 ed 70 be
       0.048044775 0.041136336 0.1137428 -0.2352799
000010 1b 37 64 3e cb d1 38 be b0 34 0d be de 4a ba bc
       0.22286646 -0.1804878 -0.1378963 -0.022740778
000020 22 f7 a2 bc 02 0e 8f be 87 de a7 bd fe 60 2b be
       -0.019893233 -0.27940375 -0.081967406 -0.16736218
000030 74 be 9a 3d c6 71 57 3d 47 f0 1d be 4f fa 4a be
       0.07555857 0.052598737 -0.1542369 -0.19822048
000040 0c 1b c3 be 50 b6 6e 3e 41 9b 00 be 92 e6 29 be
       -0.38106573 0.23311734 -0.12559225 -0.16591862
000050 7f b6 ca 3e 37 2c bc bd dc 5a b4 bc 1d ca 80 3e
       0.39592358 -0.09188121 -0.022015981 0.251542
000060 ec ed 4a be 19 c7 bf 3d 62 ec e1 bd 6d 31 e0 3c
       -0.19817322 0.09364147 -0.110314146 0.027367318
000070 7b dc b4 bc 39 bb 9e 3e 2f 84 3d 3e d0 b0 af 3e
       -0.02207779 0.31002215 0.18507455 0.34314585
000080 ee d2 7e be 5d 4c 99 be ab cf 76 3e b0 d5 1f be
       -0.24885151 -0.29941073 0.24102657 -0.15608859
000090 4f d4 2d 3e 19 32 b5 3d cb 8e 15 bc 63 49 09 bc
       0.1697552 0.08847446 -0.009128283 -0.008379313
0000a0 14 34 db 3e 8e 50 c0 3c ce 8f c0 3c 61 83 ef 3d
       0.4281317 0.023475911 0.023506071 0.116949804
0000b0 03 4d de 3e 0a c8 a4 be f3 34 ad 3d e8 a9 7e 3e
       0.4341813 -0.32183868 0.08457365 0.24869502
0000c0 ff ce de bc 87 88 a1 3e e0 12 2e be ed 50 a2 3d
       -0.027198313 0.31549475 -0.16999388 0.079255916
0000d0 1a 3d 4c bd 2a 88 08 3c fe 26 31 be 14 8c eb 3d
       -0.04986296 0.008333245 -0.1730003 0.11501327
0000e0 0d e6 9c 3d 33 4a 9a 3e 9b 99 fd 3c 9d be 55 be
       0.07661066 0.30134735 0.030957034 -0.20873494
0000f0 55 75 43 be 52 67 1f 3e 75 15 49 3e f4 32 b7 3c
       -0.19087727 0.15566757 0.19637091 0.022363164
000100 c0 b7 09 bd eb 30 32 3e fc de 94 3e 09 c5 8a 3e
       -0.033622503 0.17401473 0.29076374 0.2710345
000110 86 a5 2d 3e 52 3f 5f bd b4 b3 02 be 3d aa 76 bd
       0.16957673 -0.054503746 -0.12763864 -0.060220946
000120 6d 21 4e 3e 4a 48 80 3e c8 7b af bc c3 8a 9f 3e
       0.20129938 0.25055152 -0.021421328 0.31160554
000130 29 08 55 bd ae da c3 3d ee c8 17 3c 4a a5 bf 3e
       -0.052009735 0.09563194 0.009264214 0.37430793
000140 a3 e4 3f 3e 74 59 9a bc 78 13 ab be 50 64 41 be
       0.18739562 -0.018841483 -0.3341329 -0.18885922
000150 f1 a1 e0 3c c3 91 4f be bd 7e 13 be dc 49 53 3d
       0.02742097 -0.20270447 -0.14403816 0.05158411
000160 6f 66 83 bd 97 69 61 be 71 b4 35 3e eb f2 16 be
       -0.06416022 -0.22012936 0.17744614 -0.14741103
000170 ac 84 4e be f5 e0 16 be 4c 26 4f be f6 95 5c 3e
       -0.20167798 -0.14734252 -0.20229453 0.2154158
000180 d2 f3 77 3d 4b 67 3d 3e 8f 59 29 bd a0 1c ae 3e
       0.06053526 0.18496434 -0.041345175 0.34006214
000190 4f 5c 9d 3d c6 cf 73 be bd 37 67 be 66 20 ca 3d
       0.07683622 -0.23809728 -0.22579856 0.09869461
0001a0 85 e9 bd 3e 7d 1d f8 bd 63 78 b4 3d c7 fe cb 3e
       0.37092224 -0.121149994 0.088120244 0.39842817
0001b0 aa 42 a1 bd 91 63 30 be ea 05 07 3e b0 d3 51 bd
       -0.07874043 -0.17225482 0.1318585 -0.05122727
0001c0 2b ca 36 3e bf 74 50 be 6f 15 66 3e 52 60 fe bd
       0.17850558 -0.20357035 0.22469114 -0.124207154
0001d0 99 64 c3 3c 9a b4 85 3e 03 0f 5c be 0c 49 20 3e
       0.02385168 0.2611435 -0.21490102 0.15652865
0001e0 62 2c 8a bc 3d 54 cd 3d fd f0 45 be 84 92 26 be
       -0.016866866 0.10025833 -0.19330211 -0.16266829
0001f0 3c 19 9d 3e 28 83 f7 bc 7c 14 ef bc 9d 00 43 be
       0.30683315 -0.030213907 -0.029184572 -0.19043203

fc2.weight f4 [2, 128]
000000 9a 70 83 3f b6 47 8a 3f 38 b3 1f be 77 dc 3b 3f
       1.0268738 1.0803134 -0.1559571 0.7338328
000010 f2 f3 e6 bd 1d 70 f9 3e 0c e6 6a 3f d3 44 34 3f
       -0.112769976 0.48718348 0.91757274 0.7041752
000020 54 7e 78 3f 70 ec 2f 3d 57 d2 e1 3e bd 1b 47 3f
       0.9706776 0.042950094 0.4410579 0.777767
000030 9d 16 22 3f 43 a8 02 be 42 25 b3 bd f9 49 c6 3e
       0.63315755 -0.12759499 -0.08747341 0.38728312
000040 2a 6e fe 3d 4c a6 a9 bd 19 6c 1a 3f e5 b1 e3 3d
       0.12423356 -0.08283672 0.60321194 0.11117915
000050 fa 1d b4 be 98 5d 82 3e 50 1f ce 3e d9 be a1 be
       -0.3517912 0.2546203 0.40258265 -0.31590918
000060 ff f4 88 3e 30 8a 00 bf ce 53 0a bf 02 d6 da 3e
       0.26749417 -0.5021086 -0.54034126 0.427414
000070 32 b8 8d 3f 4f 21 6e bd 08 69 87 be 59 9b ee bd
       1.1071837 -0.058137234 -0.2644732 -0.11650724
000080 ec bd df 3d a5 fb dd 3d 4f a1 df bd ef b8 37 3f
       0.109248966 0.10839013 -0.10919439 0.7176656
000090 ec 3d 7f 3f fe 20 53 3f 3d 0d 6f 3f 70 0d b6 be
       0.9970386 0.8247222 0.93379575 -0.35557127
0000a0 b9 3f 05 be 8b 10 fe 3e 44 f9 65 be 95 44 fd be
       -0.1301259 0.49621996 -0.22458369 -0.49466386
0000b0 95 bf 89 be f5 17 51 3f 58 1d 35 3f 34 94 bc bd
       -0.26903978 0.8167718 0.707479 -0.09207955
0000c0 40 a9 a1 3f 14 7f e1 bd a3 96 64 3f 0a d8 32 b9
       1.2629776 -0.11010566 0.89292353 -0.00017055884
0000d0 d1 fb 1c 3f 98 00 5d 3f c0 1e 05 3f 68 ec 4e 3f
       0.6132174 0.8632903 0.52000046 0.8082948
0000e0 8a 08 6b be 0c c5 28 be db f3 68 3f 28 ed 15 3f
       -0.22952476 -0.16481417 0.90997094 0.58564997
0000f0 bb 6e 83 3f 3d 7a 73 3f ea 75 a4 bd 03 ad 51 3f
       1.0268167 0.95108396 -0.08030303 0.8190462
000100 cc 72 6a bf 56 96 8c be 6e 0d 94 bd 8a f8 ce bd
       -0.91581416 -0.27458447 -0.07229124 -0.10105999
000110 dd 3e ae be 61 d4 29 3f 59 a9 fa be df 5c 23 3f
       -0.34032336 0.6633969 -0.48957327 0.63813585
000120 4c 50 b3 bd 74 97 b2 3b 39 51 10 3f 32 32 d9 be
       -0.0875555 0.0054501835 0.56373936 -0.42421108
000130 cb 98 8e be af 94 8d 3f 55 94 57 3f 33 4f b8 be
       -0.27850947 1.1061 0.8421071 -0.35997924
000140 cd b7 3a be 7d f7 ae be a6 2c bc 3d 56 84 3f 3f
       -0.18234177 -0.34173194 0.091882035 0.74811304
000150 ee 32 09 3f 18 8c 6d 3c a6 8b 46 3f 88 b8 52 3f
       0.5359334 0.014498733 0.77556837 0.8231282
000160 bd a1 da 3e ad db e9 3e 8e 2c 0c bf d9 ea b8 3e
       0.42701522 0.45675412 -0.54755485 0.36116675
000170 2e 52 12 3e 36 97 20 3f 8e 8d 33 3f 46 f4 ae be
       0.14289162 0.6273073 0.7013787 -0.3417074
000180 9b 7f 04 bf b7 a4 70 be 0f 4b b3 be f4 41 15 bf
       -0.5175721 -0.23500334 -0.35018203 -0.5830376
000190 ee e8 23 3f 95 75 38 3e a9 b6 4c 3f 29 ab aa be
       0.640273 0.18013604 0.7996622 -0.3333371
0001a0 03 32 b7 bd ea b9 de be 87 07 e0 be f9 dc 19 be
       -0.08945086 -0.43501216 -0.43755743 -0.150257
0001b0 6b 79 3b bf 4b 9d 13 3d f5 e2 79 bf d2 1b 45 3f
       -0.73232144 0.03603868 -0.97611934 0.76995575
0001c0 36 88 dc be 92 a7 1c 3e ca 9d 19 be d8 18 33 bf
       -0.4307267 0.15298298 -0.15001598 -0.69959784
0001d0 dc 1b 4d 3f 74 d5 c1 bd b8 1c 9d 3e bb e6 ba bd
       0.80120635 -0.09464541 0.30685973 -0.091260396
0001e0 db c0 fb 3e 0e f9 91 3f 83 7d 36 3f 0a b0 83 be
       0.49170575 1.140413 0.71285266 -0.25720245
0001f0 01 6d c2 be b1 b3 7b 3f 7d e8 a4 be 8d 72 c1 3d
       -0.37973788 0.9832106 -0.32208624 0.09445677
000200 93 a2 81 bf 86 90 7d bf 0e 6d 89 3e 8d c1 3e bf
       -1.0127739 -0.9904865 0.26841015 -0.74514085
000210 e8 82 88 3d 4e b8 02 bf a8 7b 74 bf f7 25 49 bf
       0.066655934 -0.51062477 -0.95501184 -0.78573555
000220 67 c8 7b bf 96 be 9d bd 81 0a b2 be 14 54 49 bf
       -0.98352665 -0.07702367 -0.3477364 -0.7864392
000230 30 c2 3c bf 66 5c 04 3e b4 cd 18 3e 5e 9f d5 be
       -0.73733807 0.12925872 0.1492222 -0.4172315
000240 9e 23 24 bd ee 62 b4 bc b7 74 2b bf a1 f9 6e bd
       -0.04007303 -0.02201983 -0.6697497 -0.058343533
000250 cb 89 86 3e c2 b0 8c be 49 a5 f6 be d5 5e c4 3e
       0.26277003 -0.27478606 -0.48172978 0.383536
000260 54 9d 82 be 9a c8 e4 3e 17 81 0e 3f 6c 8f 92 be
       -0.25510657 0.44684297 0.55665725 -0.28625047
000270 f3 55 8c bf 83 6c b3 3d 25 68 df 3d 71 82 04 3e
       -1.096373 0.08760931 0.10908536 0.12940384
000280 10 27 04 be 17 4b 58 bd b5 24 0c 3e 6c 60 3b bf
       -0.12905526 -0.052805986 0.13685878 -0.73194003
000290 12 b6 6f bf 9f 50 69 bf 70 68 5d bf f7 4d 86 3e
       -0.9363719 -0.91138643 -0.86487484 0.26231357
0002a0 05 2e 23 3e fa 12 b5 be f1 14 78 3e 97 33 ef 3e
       0.15935524 -0.3536604 0.24226739 0.46719047
0002b0 70 1a 57 3e 47 6d 62 bf 5a 96 2f bf 5d 47 e4 3d
       0.21006179 -0.88447994 -0.68588793 0.11146424
0002c0 98 7d 9b bf 63 91 2d 3d 08 43 55 bf 89 24 90 3d
       -1.2147703 0.04237498 -0.83305407 0.070382185
0002d0 c5 8d 29 bf 90 33 6e bf ea 09 e2 be 8f 89 5d bf
       -0.6623195 -0.9304743 -0.4414819 -0.8653802
0002e0 0d 74 97 3e 7c cf d3 3d 44 4c 6c bf 62 8b 37 bf
       0.29580727 0.10342309 -0.9230387 -0.71697056
0002f0 83 7f 87 bf 98 ca 65 bf 58 61 54 3c 9f aa 26 bf
       -1.0585788 -0.8976226 0.012962662 -0.651041
000300 b8 e8 77 3f 4d 67 b8 3e ce 72 ed 3c 49 7a 66 3e
       0.96839476 0.36016312 0.028985407 0.22507586
000310 0d b2 c5 3e e2 d4 46 bf 00 39 e8 3e fc a6 12 bf
       0.38612404 -0.77668583 0.45355988 -0.5728605
000320 23 c9 88 ba 28 68 da 3d f0 a8 fc be 03 57 d7 3e
       -0.001043592 0.106643975 -0.4934764 0.42058572
000330 a1 39 9f 3e c8 11 91 bf c4 e3 35 bf 8a 99 9a 3e
       0.31098655 -1.1333551 -0.7105067 0.30195266
000340 50 e2 43 3e bd bd 87 3e 9f 85 5b bd c3 3c 17 bf
       0.191293 0.26511946 -0.053594228 -0.5907709
000350 62 12 05 bf 65 b7 2f bd 48 da 46 bf 19 06 6b bf
       -0.51981175 -0.042899508 -0.7767682 -0.9180618
000360 f3 14 c1 be c6 08 13 bf c4 ce 07 3f 8e f8 72 be
       -0.37711295 -0.5743526 0.53049874 -0.23727629
000370 a4 3b 02 be 3b eb 1a bf 2f 95 47 bf 65 eb b0 3e
       -0.12718064 -0.60515183 -0.7796201 0.34554592
000380 05 33 0b 3f be ca 14 3e d1 5d e2 3e de 3d ed 3e
       0.54374725 0.14530465 0.442122 0.46336263
000390 09 16 27 bf 56 35 fe bd 8d ff 3c bf 26 c7 85 3e
       -0.65268 -0.12412517 -0.7382744 0.261285
0003a0 77 28 cb 3d 4c a2 df 3e 69 8e fe 3e 43 7a 09 3e
       0.099198274 0.4367851 0.49718025 0.13425545
0003b0 db fc 2a 3f 25 7e 02 bd d0 35 61 3f c8 3c 44 bf
       0.66792077 -0.031858582 0.87972736 -0.76655245
0003c0 6c 8d b0 3e 7d b5 56 be f1 42 f7 3d 01 50 13 3f
       0.34482896 -0.2096767 0.12073315 0.5754395
0003d0 0e e9 56 bf dd af c1 3d 6a 91 78 be db cd cf 3d
       -0.83949363 0.094573714 -0.24274221 0.10146686
0003e0 4d 8e ce be 7a 71 91 bf 8c c6 49 bf 3b ce 98 3e
       -0.40342942 -1.1362755 -0.78818583 0.2984484
0003f0 5c f9 7d 3e 97 f6 64 bf a4 bc f0 3e e4 48 89 bd
       0.24802154 -0.89438766 0.4701892 -0.06703356

fc2.bias f4 [2]
000000 77 4c 99 be a8 09 8f 3e
       -0.2994115 0.27937055
