neural_net_model.pth (torch, 11672 bytes, 4 tensors)

fc1.weight f4 [64, 34]
000000 95 62 28 3f 0b 5a b0 3d 5b 9e fc 3d 7b d0 7b 3d
       0.65775424 0.08610924 0.123348914 0.06147812
000010 2d 36 ef bd 34 3b 44 3d 3c bd 9a be 0a 09 f2 3e
       -0.11680255 0.047908023 -0.302225 0.4727252
000020 aa fc 6e 3e 02 b8 a6 be 48 a7 0c 3e 6c e3 0d 3e
       0.23338571 -0.32562262 0.13735688 0.13856286
000030 a6 3c 45 3e 4c 47 87 bd 87 fc a4 3d cb 73 dd bc
       0.19261417 -0.06605396 0.08055978 -0.027032753
000040 fa 83 14 bd 65 88 51 3d b8 c0 03 3e a0 34 9a 3b
       -0.036258675 0.051155467 0.12866485 0.0047059804
000050 65 ef f7 3d 82 61 63 3d 01 7d f6 bd 4c 97 2e bd
       0.12106208 0.055512913 -0.12035561 -0.042624757
000060 0b 08 e7 bd 58 56 92 bd f5 e4 ef 3d 86 9c 82 bd
       -0.11280831 -0.07145375 0.11713592 -0.06377511
000070 ae fb 85 bd 19 24 1f bf 1d a9 c7 3e f3 62 ba be
       -0.06542145 -0.62164456 0.3899621 -0.36403617
000080 66 3d b9 3d 07 23 63 3e 36 3a 78 bd 7a 57 5b 3e
       0.09044914 0.2218133 -0.06060239 0.21420088
000090 c8 11 4b bd 45 27 d3 3e 7e 37 ea be ac 4f a2 3d
       -0.049577504 0.41240898 -0.45745462 0.079253525
0000a0 26 78 3a bd c2 7d 0a 3d c7 b8 5f bb 89 84 ba 3e
       -0.04552474 0.03381134 -0.0034137235 0.3642924
0000b0 ec f1 97 3e 0f 59 6e be 45 a3 21 be 89 9d 96 bc
       0.2967676 -0.2327616 -0.15784939 -0.018385665
0000c0 3a 7c 38 bd 4c 63 ea bd 35 ef b2 be db 10 cd bd
       -0.045040347 -0.114447206 -0.34948125 -0.100129806
0000d0 f4 03 56 bd 41 e2 1d 3e 0e 76 c1 3d bd 41 26 be
       -0.052249864 0.1541834 0.09446345 -0.16236015
0000e0 95 d9 c1 bc 1a 02 82 bd b1 c7 a9 3d 62 08 9f bd
       -0.023663322 -0.06348057 0.08290041 -0.07765271
0000f0 ad 7a b5 bd 81 e2 41 be 04 4c 76 3b 46 67 2e 3d
       -0.08861289 -0.1893406 0.003758193 0.042578958
000100 58 14 84 be 2f 8b 96 3e 27 e1 bc 3d 97 e9 13 3e
       -0.2579677 0.29403064 0.09222632 0.14444576
000110 6b 60 be 3c 7a 88 38 be 37 d4 3e 3e 06 98 b2 bc
       0.023239335 -0.18020812 0.18635641 -0.021801006
000120 27 41 ca 3d e3 4c a0 3c 24 0d 28 be a3 d4 4f 3e
       0.09875708 0.019567912 -0.16411263 0.20295958
000130 87 f5 83 be 3a 45 b2 3d a4 cf 8a 3e 3e 8b 05 3e
       -0.2577326 0.0870461 0.27111542 0.13041398
000140 3a 5e 6d bc 60 dc b8 be 84 ad bb 3d f2 ec 90 bd
       -0.014487797 -0.36105633 0.09163955 -0.07076444
000150 6f 33 5b 3b 5d 2c 8e be 1c 0d 62 3e 82 88 f6 bd
       0.0033447405 -0.27768221 0.22075313 -0.120377555
000160 14 51 92 bd 99 b4 a0 3d f9 a3 30 be 6e 4b 89 be
       -0.07144371 0.07846946 -0.1725005 -0.2681536
000170 4e 90 1b 3e c8 5b 07 3e 1e c8 50 be 12 65 b9 be
       0.15191767 0.13218606 -0.20388839 -0.36209923
000180 df f8 1c 3e 8b e2 18 be d7 cc 1c be ce 26 7d be
       0.15329312 -0.1493017 -0.15312515 -0.24721834
000190 73 31 e1 bc 96 d6 2c 3e 33 0c 11 3e 48 4a b9 be
       -0.0274894 0.16878733 0.1416481 -0.36189485
0001a0 9d d5 80 3d ac 58 74 be f9 65 18 bf 70 48 30 be
       0.062907435 -0.2386195 -0.595306 -0.17215133
0001b0 43 14 0c be f0 9f bf bc e8 bc 8b 3e 84 e4 03 be
       -0.13679604 -0.023391694 0.27292562 -0.1288014
0001c0 ba 02 db 3d e7 09 c1 bd f1 d7 ff bd 79 6e 99 be
       0.106938794 -0.09425717 -0.124923594 -0.29967096
0001d0 ac f2 91 be 07 8a 4c bd 90 5a d1 39 1f 53 81 3d
       -0.28505456 -0.04993632 0.0003993106 0.06314682
0001e0 73 22 89 bd 4d ef 2f be 58 5a 0e be a4 be 47 be
       -0.06696024 -0.1718113 -0.13901651 -0.19506317
0001f0 ff 15 09 bf be 2c e9 be 9f 29 2e be f9 35 13 be
       -0.5354919 -0.45541948 -0.17008065 -0.14376058
000200 e1 80 a0 3e e8 36 6b bd 99 9a b8 bd 20 c0 9c bd
       0.31348327 -0.05742541 -0.09013862 -0.076538324
000210 ce e6 81 bd 20 c7 4d 3c 8b 90 99 3c d5 78 4b 3d
       -0.063428506 0.012559682 0.018745681 0.04967578
000220 08 b0 99 be 60 c8 c8 be 31 f4 6a 3d 62 16 c5 be
       -0.30017114 -0.39215374 0.057361785 -0.3849364
000230 f4 fc 11 3e 35 79 e2 3c 5d 0f 9d 3e 04 1d a1 3d
       0.1425665 0.027645687 0.30675784 0.078668624
000240 f1 49 e5 bd cf 56 aa 3d c3 06 82 3d 22 75 ab bc
       -0.11195744 0.08317339 0.06348946 -0.020929877
000250 ed bc 7c 3e 20 58 53 be 14 7e 9e bc 47 b4 7c 3d
       0.24681444 -0.20639086 -0.019347228 0.061695363
000260 03 92 95 bc 59 5c 52 3d ec 56 2c 3e 46 2d f4 bd
       -0.0182581 0.0513576 0.16830033 -0.11922698
000270 c0 e6 ff 3c 72 db 7f 3e ed f1 37 be d9 69 7f be
       0.03123796 0.24986055 -0.17963381 -0.24942721
000280 db 82 7e 3d 7a 49 4b bd a9 a5 4f 3e 39 c8 a0 bd
       0.062136512 -0.04963062 0.20278038 -0.078506894
000290 4f 3b 58 bd 35 c4 51 bb 80 51 75 bc da 01 84 3e
       -0.052790936 -0.0032007818 -0.014973044 0.25782663
0002a0 29 ba 5b 3d e3 66 88 be 79 62 ed 3c bb c5 0f be
       0.053644333 -0.26640996 0.02897762 -0.14040272
0002b0 47 b9 15 3e ce cf 73 3d f3 f9 8e be 2a fb cb 3d
       0.14621459 0.05952435 -0.2792507 0.09960015
0002c0 04 b3 4a be 34 54 a8 3e 7a 06 2d 3e 2e aa ad be
       -0.19794852 0.32876742 0.16897002 -0.339189
0002d0 e9 41 1d 3e c6 7e 11 3b 1f ed 8d be a3 82 89 bd
       0.15357174 0.0022200807 -0.27719972 -0.0671437
0002e0 1d 31 cf 3d f6 5d fd bd d3 21 21 bd 20 0b 02 3d
       0.101167895 -0.12371437 -0.039338898 0.03174889
0002f0 cb 7f 08 be 32 b1 5d b8 c4 05 78 3a 63 d9 0e bd
       -0.13329999 -5.2855532e-05 0.00094613084 -0.034875285
000300 0f 38 58 3e 5c a8 96 3e 3d 0e fb ba 8c 7e 7c be
       0.21115135 0.29425323 -0.0019154024 -0.24657649
000310 29 c2 11 be db 1a 43 be 08 32 fa bd 87 e1 52 bc
       -0.14234222 -0.19053213 -0.12216574 -0.012871153
000320 a9 7f 6f be 4a 70 6f be c9 78 6c bd e3 9e 19 be
       -0.23388542 -0.23382679 -0.057732377 -0.15002017
000330 93 3a c1 3d 15 4e c0 bd 32 77 92 3d 03 cb 45 3e
       0.09435 -0.09389893 0.07151641 0.19315724
000340 89 74 bd be 6d 4c 02 be 6b dd e0 bd 0b dc 74 3e
       -0.37002972 -0.12724467 -0.10979732 0.23912065
000350 12 13 cd 3c a7 e2 07 be 33 89 17 3d b2 7c cf 3d
       0.025033507 -0.13270055 0.036996078 0.101312056
000360 15 8b 79 be e8 9f f0 bd f1 12 6f 3e 70 5c 8e be
       -0.24369462 -0.1174925 0.2334707 -0.278049
000370 07 7d 69 bd 0a 77 dc 3e 1e f6 0e be 50 b1 b3 bd
       -0.057004 0.4305957 -0.13961074 -0.08774054
000380 a6 92 94 be d4 08 7a 3c 15 b5 47 be 1f 5a a7 3d
       -0.29018134 0.015260894 -0.19502671 0.08171486
000390 e1 8b 86 be e4 a2 3a be 03 aa 6b bd d7 10 0e bd
       -0.26278594 -0.182262 -0.057535183 -0.03468403
0003a0 bb d5 62 be bd 06 c1 3e 4f 13 d1 3d fa 7e 92 be
       -0.22151844 0.37700453 0.10208761 -0.286125
0003b0 bb 07 d9 3d be 86 0c be 9f e6 d5 bd a6 c2 89 be
       0.105971776 -0.13723275 -0.10444378 -0.26906317
0003c0 a8 0a 92 3e 30 d0 eb bc 59 4e a5 be 5c bb 37 3d
       0.28523755 -0.028785795 -0.32286337 0.044856414
0003d0 c0 71 cd bd bd 27 05 3e a2 18 a8 be 11 65 e2 3b
       -0.10031462 0.1300344 -0.32831293 0.0069090207
0003e0 b5 2d 06 3e b1 58 2e bb b1 81 57 3e 61 88 b1 be
       0.13103373 -0.0026603157 0.21045567 -0.3467436
0003f0 87 5d 30 3e c1 d3 21 3d fb 33 23 be 81 a9 86 3c
       0.17223178 0.039508585 -0.15937798 0.016438248

fc1.bias f4 [64]
000000 59 79 e8 be c2 02 5c 3d 5f b7 a9 be 7e b8 54 3e
       -0.4540508 0.053713568 -0.33147714 0.20773503
000010 b4 fe 69 bd e2 6d 41 3e 52 58 75 3d f6 14 bd be
       -0.05712767 0.18889573 0.059898682 -0.36930054
000020 8c db 6b bd fb 92 fc be 65 89 9c bd 19 6c 63 bd
       -0.057582423 -0.49330887 -0.076433934 -0.05552301
000030 50 8d f2 bd bf fc 1b bf 73 f3 2e bd 23 1f 12 bd
       -0.118433595 -0.60932535 -0.04271264 -0.035674226
000040 be e3 cb be 6d d9 92 3c 10 b3 01 3c cd d5 9d be
       -0.3982219 0.017925942 0.007916227 -0.3082718
000050 26 b7 23 bd a7 11 4c be 1f 39 d0 be 26 5a 91 bd
       -0.039969586 -0.19928609 -0.4066858 -0.070972726
000060 a6 cc c0 bd 88 85 44 be c8 82 07 bf 3c 91 f2 3c
       -0.094140336 -0.19191563 -0.5293393 0.029610269
000070 bc ec 95 be 1d 28 37 3d 88 12 83 be 11 1c 4c be
       -0.29282176 0.04471599 -0.25600076 -0.19932581
000080 9a dc 0e 3e 71 e5 9a be a5 da 5f be f4 73 8d be
       0.1395134 -0.30253175 -0.2186075 -0.27627528
000090 16 64 91 be 08 12 48 be c6 9b ea bd dc 7c e5 bb
       -0.28396672 -0.19538128 -0.11455493 -0.00700341
0000a0 a1 52 20 be ff 92 89 be 28 05 b6 be c0 fc 83 bd
       -0.1565652 -0.26869962 -0.3555081 -0.064446926
0000b0 40 f1 aa be 54 d5 bf be 7b 48 cf be 6c 74 f8 bd
       -0.33387184 -0.37467444 -0.40484986 -0.12131581
0000c0 e0 42 b7 be d2 0a d4 be f3 9c 8a bd 40 0b 34 3e
       -0.3579321 -0.41414505 -0.06768217 0.17582417
0000d0 c1 50 ca bd 51 89 20 be c7 9a ef bd 88 5f e2 be
       -0.09878684 -0.15677382 -0.11699443 -0.4421351
0000e0 f7 6a 97 be 2d 1f 90 be b1 50 ff bd 11 e6 dd bd
       -0.29573795 -0.28148785 -0.124665625 -0.10834897
0000f0 dc 76 29 be 77 42 cd 3d 23 ee fc bc 88 d0 ba be
       -0.16549248 0.10022443 -0.030875271 -0.36487222

fc2.weight f4 [2, 64]
000000 f8 7c bb 3e 4f 08 ad 3d 99 2f cb 3d e0 80 03 3e
       0.3661878 0.0844885 0.09921188 0.1284213
000010 2c ad 05 3e 33 c4 15 be b6 c7 36 be c8 8f 74 be
       0.13054341 -0.14625625 -0.17849621 -0.23882973
000020 9b db af 3e 20 25 86 3e da bf 62 be fc 37 88 bd
       0.34347233 0.262002 -0.22143498 -0.06651303
000030 3d af 6b 3c 86 a5 52 3e f6 cf b1 3d fc 99 1c 3e
       0.014385042 0.20570955 0.086822435 0.15293115
000040 52 59 73 3e 11 a1 e2 3d 70 9b 19 3c 5d 0e 67 be
       0.23764542 0.11065877 0.009375438 -0.22564073
000050 33 10 68 be 77 1c 30 3e 00 05 94 3e 7a 4c b7 3e
       -0.2266243 0.17198358 0.28910065 0.35800534
000060 e9 90 0d 3e 3c 62 22 3e f6 fb 6c 3e 6e 52 a8 3d
       0.1382481 0.15857786 0.2314299 0.08218847
000070 bc ed 23 3e a6 cb d7 3e a0 a4 70 bd 3d 0e 3c 3e
       0.16008657 0.4214756 -0.05875075 0.18364806
000080 67 40 35 3e 19 99 81 3e 3c 7e 68 3e 80 ae 3e bd
       0.17700349 0.25312117 0.22704405 -0.046553135
000090 1a 85 98 be 61 3e 8d be db 07 76 3e 5f 34 dd 3d
       -0.29789048 -0.27586654 0.24026434 0.108010046
0000a0 f3 2b 13 be 1a c4 75 be 0e bd 59 be ee 74 a2 3e
       -0.14372234 -0.24000588 -0.21263525 0.31729835
0000b0 ad e4 c9 3d bc ee 73 3e bd 79 80 3e 95 3e 31 3e
       0.098580696 0.23821539 0.2509288 0.1730903
0000c0 1b 73 cd 3d a8 3b c8 3e 5f 00 08 3e 3e 51 40 3e
       0.1003172 0.39108014 0.13281392 0.18780991
0000d0 bf 38 18 be e2 e9 1d be bd 12 83 3e 7b 16 72 3e
       -0.14865397 -0.1542125 0.25600234 0.23641388
0000e0 44 31 20 3e fe 52 dc 3e 98 05 51 be bc 63 94 be
       0.15643793 0.43032068 -0.2041229 -0.2898234
0000f0 34 26 7d be eb 46 36 bd 95 73 21 be b0 4a 21 be
       -0.24721605 -0.044501226 -0.15766747 -0.15751147
000100 ec 3f b2 be 1a d9 5f be 68 50 22 be be 1a a1 be
       -0.34814394 -0.21860161 -0.15850985 -0.31465715
000110 fb ee e7 bd ee 42 18 3e f2 42 25 3e f6 17 22 3e
       -0.11324879 0.14869282 0.16138819 0.15829453
000120 24 b8 83 be 12 ad 5c be ab f6 d0 3d ea 79 d8 bd
       -0.25726426 -0.21550396 0.10203298 -0.10570128
000130 2a d4 18 be 42 2f d0 be 55 8a 97 bd 56 2a 64 be
       -0.14924684 -0.40661055 -0.073994316 -0.22281775
000140 a0 0e 91 be 16 10 53 be ac 79 e6 3d ba 6d 69 3e
       -0.2833147 -0.20611605 0.11253676 0.22795764
000150 8c 78 64 3e 5d db 2b be 78 c5 5f be 40 a8 ba be
       0.2231161 -0.16782899 -0.21852672 -0.3645649
000160 8f 90 26 be 61 ad 85 be 73 63 94 be fd 15 6c be
       -0.16266082 -0.2610884 -0.28982124 -0.23055263
000170 fc 23 33 be 9c 09 80 be 8d e0 22 3e 32 56 31 be
       -0.17494196 -0.2500733 0.15905972 -0.17318037
000180 dd 35 28 bd c9 77 52 be e0 3d 2b be 1d 73 85 bd
       -0.041066993 -0.20553507 -0.16722822 -0.06516097
000190 63 d7 93 3e 36 64 49 3e 56 7d 8f be c4 ae 85 be
       0.28875265 0.19667134 -0.2802531 -0.26109898
0001a0 07 fd df 3d 21 aa 5f 3e e1 7f cc 3d eb d1 aa be
       0.10936933 0.21842243 0.099853285 -0.3336328
0001b0 fb 48 04 be 5d 23 b6 be 02 aa 70 be cb dd 4c be
       -0.12918465 -0.35573855 -0.23502353 -0.20006482
0001c0 87 a0 cd bd fc ee 4c be 66 1a 5c bd a7 d7 45 be
       -0.10040384 -0.2001304 -0.053736113 -0.19320546
0001d0 63 0e 0f 3e a9 60 15 3e da 67 65 be fd 74 ff bd
       0.13970332 0.14587654 -0.22402897 -0.124734856
0001e0 c4 a7 b3 bd 36 be 17 bf d5 e4 b9 3d 95 c7 1c 3e
       -0.08772233 -0.59274614 0.09076849 0.1531051
0001f0 1b f7 a3 3e ba b5 22 3e b0 59 01 3e 99 7c 2e 3e
       0.32024464 0.15889636 0.1263187 0.17039718

fc2.bias f4 [2]
000000 5a 7d af bc a9 87 86 3d
       -0.021422077 0.06568844
